examples/scene_samplescene/model.onnx (onnx, 379376 bytes, 6 tensors)

actor.0.0.weight f4 [256, 107]
-0.06683255 -0.092104554 -0.05273351 -0.069631815 0.048036635 0.06380828 -0.020708255 0.057093993
-0.02832508 -0.07972293 0.04609411 -0.07196947 -0.0972483 -0.074055046 0.024206938 -0.059208285
-0.098330826 -0.08628472 -0.0012643664 0.03038168 -0.018531378 -0.039001558 -0.011421247 0.01731349
-0.05026634 -0.08461497 0.07292208 -0.10201435 0.06508835 0.0024959666 -0.059003897 -0.0069768606
-0.022831907 0.020663707 0.018295266 0.03136891 0.029593091 0.062166035 0.03924417 0.06137326
0.017104594 0.009136489 0.009560818 0.00254176 -0.07596679 0.044678178 -0.019522667 -0.0425732
-0.0049832663 0.10037911 -0.03536439 0.11066292 0.07189162 0.068694085 0.07946353 -0.07195404
-0.06710359 -0.08891577 -0.105256 -0.0581126 -0.0023076253 0.06354847 0.030597305 0.020333348
0.058866613 -0.08921225 -0.0052177426 0.022921821 0.02286631 -0.05691408 0.05442207 -0.09256285
0.05218631 -0.0281177 0.037292402 0.052321963 0.009352911 -0.07389165 -0.06068363 0.011308996
0.066150956 0.08427585 0.073831916 -0.06778211 -0.03806218 -0.047343817 -0.10042897 0.06787747
0.041454453 -0.060621515 0.062842876 0.024603866 0.06299836 -0.030338515 0.05130456 -0.033375066
0.04127915 -0.04625233 0.011626995 -0.09689161 -0.017827386 -0.23956826 0.120259404 0.021799723
0.9821623 -0.042247567 0.027759964 -0.014775589 0.09003596 0.012826711 -0.05954881 -0.02706819
0.00010919571 0.09614426 0.08815092 0.07624416 0.08945982 0.046514064 -0.0443083 0.055747017
-0.018929593 0.005429767 -0.068234 -0.09234482 -0.06765798 -0.017607853 0.0022522807 0.022100441
0.061541602 -0.0726672 -0.082012035 0.06367035 -0.058544677 0.02474168 -0.037195187 -0.040621437
0.0933785 -0.075732395 0.05339776 -0.048432905 0.07311541 0.07789071 0.080577984 0.011828594
-0.06652082 -0.0074821115 0.033701286 -0.01125893 -0.072634324 0.027748488 0.05570452 -0.004350506
-0.071840234 -0.013586357 -0.09264403 -0.0939005 -0.07462141 -0.06858409 -0.066843994 -0.08665608
-0.05186682 0.035630584 -0.0029955953 -0.09338399 -0.06349176 0.06731351 -0.09537938 -0.016239468
-0.00745802 0.07217396 -0.027982201 -0.016494064 -0.08115425 0.055070173 -0.06886637 -0.06637756
-0.048081804 -0.06709667 -0.018984655 0.0057290574 0.016014723 0.0121847 0.008520193 0.006179389
-0.094634324 -0.09930881 -0.09226539 -0.010870907 0.007477345 0.0076558995 -0.052025326 0.02222607
0.06259183 -0.06970771 -0.059472684 -0.11825706 -0.028645484 -0.063965544 -0.038625028 0.03727639
0.010933896 0.0072922646 0.031094477 0.027072039 -0.022855356 0.053678814 -0.04932111 -0.12605782
0.1749921 0.0856021 0.05195038 0.16305757 0.052918542 0.058165863 0.082727596 0.0060650334
0.0906869 -0.040663317 -0.047800146 -0.021464325 -0.0023140907 -0.029512852 -0.080946006 -0.013061143
-0.04141688 0.07284366 0.08795511 0.018647127 0.029401105 -0.063405335 -0.027632035 -0.021788329
0.020334832 -0.04746482 -0.0068339836 -0.04829817 -0.072771184 0.060170364 -0.03874406 0.015431546
-0.031428497 -0.0018084869 -0.056907162 -0.043511216 -0.04635411 0.03621035 -0.022366978 -0.022250403
0.053754292 -0.0775594 -0.038543567 -0.014334131 -0.09042712 0.056607813 0.07745457 0.00392697
00000000: 81df 88bd 50a1 bcbd 18ff 57bd 209b 8ebd
00000010: 10c2 443d eaad 823d 5ca4 a9bc 64db 693d
00000020: 000a e8bc c745 a3bd 2dcd 3c3d bb64 93bd
00000030: 1e2a c7bd 2caa 97bd a14d c63c 6384 72bd
00000040: ac61 c9bd 0bb6 b0bd 19b9 a5ba 00e3 f83c
00000050: 1ecf 97bc 19c0 1fbd 2f20 3bbc 05d5 8d3c
00000060: 14e4 4dbd 9d4a adbd 2c58 953d e6ec d0bd
00000070: 0a4d 853d 5f93 233b 12ae 71bd 269e e4bb
00000080: fb09 bbbc ef46 a93c f4df 953c b07c 003d
00000090: 366d f23c d0a1 7e3d 7fbe 203d 8762 7b3d
000000a0: ef1e 8c3c 36b1 153c faa4 1c3c a893 263b
000000b0: 7a94 9bbd 7700 373d 00ee 9fbc 3c61 2ebd
000000c0: ab4a a3bb 9093 cd3d 40da 10bd 3ea3 e23d
000000d0: ea3b 933d 7caf 8c3d c6bd a23d a45c 93bd
000000e0: 9b6d 89bd 7919 b6bd 7590 d7bd 7a07 6ebd
000000f0: 873b 17bb b325 823d 33a7 fa3c 1f92 a63c
00000100: 1e1e 713d eab4 b6bd 99f9 aabb 8bc6 bb3c
00000110: 2152 bb3c bd1e 69bd ade9 5e3d 9791 bdbd
00000120: 50c1 553d 1757 e6bc ebbf 183d 8e4f 563d
00000130: f43c 193c 8154 97bd 668f 78bd 5e49 393c
00000140: 277a 873d d198 ac3d 3035 973d 59d1 8abd
00000150: 17e7 1bbd 97eb 41bd b4ad cdbd 5803 8b3d
00000160: 25cc 293d 444e 78bd c4b3 803d 0c8e c93c
00000170: 4905 813d 7a88 f8bc bb24 523d 4bb4 08bd
00000180: 5314 293d 1573 3dbd 277f 3e3c 1c6f c6bd
00000190: bd0a 92bc 6251 75be 904a f63d 5595 b23c
000001a0: fd6e 7b3f c90b 2dbd dd68 e33c 5015 72bc
000001b0: c664 b83d 2027 523c 74e9 73bd 1cbe ddbc
000001c0: 0000 e538 48e7 c43d 7888 b43d e625 9c3d
000001d0: b636 b73d 8885 3e3d 9f7c 35bd fc56 643d
000001e0: 3c12 9bbc 30ec b13b 44be 8bbd 481f bdbd
000001f0: 4490 8abd 583e 90bc 009b 133b fc0b b53c
00000200: 0c13 7c3d 8ad2 94bd edf5 a7bd 9a65 823d
00000210: 8bcc 6fbd 10af ca3c fb59 18bd aa62 26bd
00000220: 3a3d bf3d 9619 9bbd 9cb7 5a3d 9561 46bd
00000230: 88bd 953d 2a85 9f3d 1206 a53d b8cc 413c
00000240: 113c 88bd 802c f5bb 5c0a 0a3d 6077 38bc
00000250: 4ec1 94bd cc50 e33c 6c2a 643d b08e 8ebb
00000260: f920 93bd 5099 5ebc 27bc bdbd e84e c0bd
00000270: 1cd3 98bd d175 8cbd 81e5 88bd be78 b1bd
00000280: 4d72 54bd 60f1 113d c051 44bb 1b40 bfbd
00000290: f807 82bd aadb 893d 4456 c3bd a208 85bc
000002a0: 6862 f4bb f1cf 933d ee3a e5bc 8f1e 87bc
000002b0: 3334 a6bd 4391 613d d009 8dbd f5f0 87bd
000002c0: 6df1 44bd fb69 89bd b585 9bbc d1ba bb3b
000002d0: 4f31 833c 56a2 473c 4898 0b3c 797c ca3b
000002e0: a4cf c1bd 6b62 cbbd a3f5 bcbd e41b 32bc
000002f0: 8404 f53b 57de fa3b 8218 55bd 7213 b63c
00000300: 2530 803d eac2 8ebd a199 73bd c230 f2bd
00000310: efa9 eabc 5e00 83bd 4735 1ebd 21af 183d
00000320: 1524 333c f3f3 ee3b d8b9 fe3c 2ec6 dd3c
00000330: 283b bbbc 51de 5b3d ef04 4abd 4d15 01be
00000340: 2131 333e 2750 af3d ecc9 543d 90f8 263e
00000350: 1dc1 583d 543f 6e3d 166d a93d 30bd c63b
00000360: 0eba b93d 948e 26bd 16ca 43bd f4d5 afbc
00000370: 00a8 17bb f0c4 f1bc 05c7 a5bd 68fe 55bc
00000380: bfa4 29bd 0f2f 953d cf21 b43d dcc1 983c
00000390: 96da f03c a8da 81bd 945c e2bc 707d b2bc
000003a0: 3c95 a63c 796a 42bd 9cef dfbb 4dd4 45bd
000003b0: 0f09 95bd 3375 763d 17b2 1ebd 98d4 7c3c
000003c0: 2bbb 00bd c00a edba 7c17 69bd d138 32bd
000003d0: cfdd 3dbd 4e51 143d f43a b7bc 7a46 b6bc
000003e0: 762d 5c3d 76d7 9ebd dcdf 1dbd b4d9 6abc
000003f0: db31 b9bd 98dd 673d 80a0 9e3d d0ad 803b

actor.0.0.bias f4 [256]
0.12881203 0.027433919 0.010360681 0.06710371 -0.08468339 -0.046095155 0.22184752 0.031564936
0.19263686 -0.08067881 -0.021990938 -0.09711736 0.03586011 0.10546066 0.15456133 0.13319121
0.08477836 0.1832687 0.1565548 -0.024066808 0.11186238 -0.036220897 0.018360008 0.026095344
-0.01632854 -0.08721743 0.13423458 0.03793999 -0.101740226 0.08204454 0.13151924 0.12417908
0.10468476 -0.09291688 0.029165613 0.15690416 0.113677494 -0.05720876 0.17108007 -0.02531925
0.08844841 0.028877212 0.053176075 -0.06488447 0.14889513 0.06221982 0.115110114 0.02168866
0.028348135 0.03203768 0.105264135 0.15674347 0.09592629 -0.006188499 0.16484775 0.07158435
0.12284224 0.10798372 -0.036599234 -0.007547345 0.20033629 0.07392845 -0.09265796 0.04293065
0.17612612 0.17519535 0.1269569 -0.046388768 0.035090815 -0.014306032 0.18346475 0.17088872
-0.077024154 0.009540121 0.1450009 0.07447547 0.062482085 -0.035561785 0.054845866 0.1862637
0.06234673 0.17610686 -0.061893374 0.14205262 0.07428409 0.030828245 -0.03289918 0.097382024
-0.10176306 -0.070756026 0.12750004 -0.011831378 -0.09497132 0.15936671 0.14930919 0.06496296
-0.046958804 0.060633436 -0.052263815 -0.0965455 0.06500139 -0.12420809 0.116301194 0.0985834
-0.008022794 -0.08717222 0.17655697 0.04180575 -0.07206563 -0.07436884 -0.060956843 0.09310806
-0.020951992 -0.04492857 -0.10173745 0.011407214 0.15092845 -0.114745446 0.21442775 0.03280611
0.091130495 -0.061051726 -0.09564079 0.01159534 0.080188215 0.21574594 0.11969858 -0.028738173
-0.0667998 -0.0941387 0.0109340735 0.13693136 -0.060427707 -0.08630603 0.06810031 -0.07866787
0.1627051 -0.012284457 0.028243346 0.16961405 -0.08456828 0.09022969 0.08657627 0.06938983
-0.047792785 -0.07148908 -0.09957319 -0.0520342 0.05701834 -0.010502178 0.086019814 -0.02776163
-0.09324221 0.16069852 -0.012588858 0.061285242 0.20175217 -0.046838418 0.038419876 -0.07542781
-0.065069266 0.0032241333 0.118225105 0.0040390743 0.046394885 0.05608868 -0.050224174 0.04145846
0.17365512 0.124047935 0.1717332 0.10226575 0.18226328 -0.037915837 0.08305217 -0.010634668
0.13976504 0.1357789 0.11035808 0.03266823 -0.030740194 0.056732252 0.10585721 -0.0878489
-0.020641293 0.18755668 -0.04007356 -0.05058687 0.18188302 0.019920941 -0.10197147 0.14570332
-0.06928203 0.14479904 -0.11817702 -0.040144537 0.10138414 0.025004989 0.021240331 0.19510704
0.09447116 -0.07167662 0.118405946 -0.01164011 -0.05631251 0.19513999 0.0632463 0.16309813
0.15578651 -0.037987355 0.16281152 0.2642122 0.043736875 -0.07861108 0.047383912 0.19797376
0.13968591 -0.08127149 -0.017677426 0.03993418 -0.05123755 0.00051324593 -0.027016234 -0.0413367
0.098368146 -0.082341775 -0.021916158 0.12975024 -0.0019121764 0.13921201 0.02020302 0.13790017
0.0696438 -0.011888139 0.043639284 0.037769046 -0.043088306 -0.073510535 -0.09864431 0.057777714
0.033635005 -0.10509031 0.058282718 0.11994278 -0.04009957 -0.040552538 -0.010412624 0.04468321
-0.070252486 0.022209598 -0.038390547 0.12031556 0.0058396654 0.12266588 0.033693697 -0.08410091
00000000: 4de7 033e 19bd e03c d9bf 293c ab6d 893d
00000010: 7c6e adbd 46ce 3cbd ff2b 633e 3c4a 013d
00000020: 9942 453e ef3a a5bd 5726 b4bc 77e5 c6bd
00000030: 0de2 123d c2fb d73d 5345 1e3e 4763 083e
00000040: 47a0 ad3d caaa 3b3e e74f 203e c127 c5bc
00000050: 1a18 e53d 5d5c 14bd ba67 963c e7c5 d53c
00000060: 6ec3 85bc 0d9f b2bd ca74 093e f766 1b3d
00000070: 2e5d d0bd f806 a83d fbac 063e 9a51 fe3d
00000080: f764 d63d 354b bebd b9ec ee3c 7cab 203e
00000090: bfcf e83d bc53 6abd 9d2f 2f3e 516a cfbc
000000a0: 7124 b53d e78f ec3c 28cf 593d 26e2 84bd
000000b0: f777 183e 36da 7e3d dabe eb3d 6bac b13c
000000c0: 593a e83c f139 033d b994 d73d 5c81 203e
000000d0: 0175 c43d e4c8 cabb d9cd 283e d19a 923d
000000e0: b694 fb3d 9226 dd3d 14e9 15bd b84f f7bb
000000f0: f524 4d3e cd67 973d 75c3 bdbd 0dd8 2f3d
00000100: 685a 343e 6966 333e fd00 023e 2602 3ebd
00000110: 63bb 0f3d d963 6abc 2fde 3b3e 74fd 2e3e
00000120: d7be 9dbd 2b4e 1c3c 1e7b 143e 9886 983d
00000130: 37ed 7f3d 3ca9 11bd 0fa6 603d e9bb 3e3e
00000140: 495f 7f3d 5b55 343e e883 7dbd 3e76 113e
00000150: 4222 983d 848b fc3c 4ac1 06bd 3a70 c73d
00000160: 2769 d0bd 89e8 90bd 5f8f 023e 65d8 41bc
00000170: 5380 c2bd 0731 233e 82e4 183e 4d0b 853d
00000180: e057 40bd c45a 783d 9512 56bd a6b9 c5bd
00000190: 731f 853d d060 febd 522f ee3d 18e6 c93d
000001a0: 0972 03bc 5987 b2bd 5acb 343e 823c 2b3d
000001b0: 2597 93bd b14e 98bd e2ad 79bd 70af be3d
000001c0: 83a3 abbc 0507 38bd b95b d0bd 53e5 3a3c
000001d0: fd8c 1a3e a9ff eabd f392 5b3e b35f 063d
000001e0: a0a2 ba3d 6011 7abd 52df c3bd 62fa 3d3c
000001f0: b839 a43d 81ec 5c3e 8724 f53d 516c ebbc
00000200: 55ce 88bd cacb c0bd d424 333c bc37 0c3e
00000210: 0b83 77bd 37c1 b0bd 2d78 8b3d 9f1c a1bd
00000220: 2a9c 263e bf44 49bc 975e e73c 4eaf 2d3e
00000230: 2232 adbd 58ca b83d e64e b13d 411c 8e3d
00000240: 5ec2 43bd de68 92bd 07ed cbbd d021 55bd
00000250: 108c 693d 5411 2cbc 282b b03d 5c6c e3bc
00000260: c6f5 bebd 278e 243e 7f41 4ebc 3c06 7b3d
00000270: 1f98 4e3e a4d9 3fbd 295e 1d3d e579 9abd
00000280: 0943 85bd fb4b 533b 0120 f23d 365a 843b
00000290: 9008 3e3d 3ebd 653d ddb7 4dbd 59d0 293d
000002a0: a6d2 313e d80c fe3d d4da 2f3e b570 d13d
000002b0: 3aa3 3a3e a34d 1bbd 4217 aa3d 083d 2ebc
000002c0: 911e 0f3e a009 0b3e 6b03 e23d 1fcf 053d
000002d0: dcd2 fbbc 1460 683d aacb d83d 20ea b3bd
000002e0: ee17 a9bc dc0e 403e 2c24 24bd 2e34 4fbd
000002f0: 8b3f 3a3e 3e31 a33c 6bd6 d0bd 4033 153e
00000300: bde3 8dbd 3346 143e cb06 f2bd 996e 24bd
00000310: 7da2 cf3d 43d7 cc3c 3400 ae3c 24ca 473e
00000320: 187a c13d 31cb 92bd d17e f23d 29b6 3ebc
00000330: f2a7 66bd c7d2 473e 4787 813d 3203 273e
00000340: 8086 1f3e a198 1bbd 10b8 263e d246 873e
00000350: 7025 333d d9fe a0bd a215 423d a2b9 4a3e
00000360: d309 0f3e ab71 a6bd 40d0 90bc 0692 233d
00000370: 77de 51bd 5a8b 063a 2651 ddbc ac50 29bd
00000380: 3d75 c93d cea2 a8bd 8489 b3bc 3fdd 043e
00000390: fea1 faba 988d 0e3e ce80 a53c b435 0d3e
000003a0: 69a1 8e3d 78c6 42bc 1bbf 323d b7b3 1a3d
000003b0: 5d7d 30bd b18c 96bd 0706 cabd 53a8 6c3d
000003c0: dcc4 093d 9739 d7bd dcb9 6e3d 8fa4 f53d
000003d0: 723f 24bd 6b1a 26bd b699 2abc be05 373d
000003e0: 89e0 8fbd e7f0 b53c 683f 1dbd 0168 f63d
000003f0: aa5a bf3b 4038 fb3d 6702 0a3d 193d acbd

actor.0.2.weight f4 [256, 256]
-0.08283275 -0.035773735 0.0061342614 -0.023914821 -0.05795765 0.019949734 0.024940228 -0.03717477
0.0435545 -0.020443603 -0.029122248 0.060337815 0.01958507 0.1165312 0.063913524 0.10756986
-0.10734778 0.09172434 0.006596878 0.009486047 0.04613434 0.04701398 0.019857477 0.0032056472
-0.083008066 -0.018064933 -0.08753566 -0.03344675 0.015470539 -0.0014313981 -0.0076081934 -0.031704523
0.043687943 0.009064767 0.029838791 -0.008353292 0.046617262 0.02876864 0.046841126 8.9743204e-05
-0.001329497 0.019446595 -0.030121174 -0.036401015 0.05093966 -0.048583508 -0.05885283 0.03741523
0.02411224 0.094525985 -0.09073882 0.03779532 0.089233376 -0.008176727 0.025690252 -0.028977327
-0.091751985 0.04333696 -0.067497 -0.053629644 -0.107885405 -0.01543513 0.05357044 -0.010877536
-0.018988138 0.05403322 0.02469329 -0.029820139 -0.12006281 0.047207925 0.07958627 0.019916032
-0.04918192 0.005205561 -0.02606662 -0.13762353 0.05370501 0.012645527 -0.05409582 0.020975586
-0.08074606 -0.048672337 -0.06100585 -0.12612419 0.030226162 0.009853454 0.039510503 0.010020498
-0.054047678 0.014340943 0.11395125 -0.006384672 0.040013246 0.02114079 -0.059567343 0.040823102
-0.019905278 -0.09067684 0.058364384 -0.04600613 -0.051308297 0.031490155 0.0021242122 0.050921094
-0.0094171 -0.029856998 0.01800833 -0.04094706 -0.050961293 -0.0009555879 0.034185268 0.090482146
0.05680678 -0.0514303 -0.023691397 0.021333527 0.15070623 -0.04993342 -0.005317527 0.025738431
-0.0107191345 0.009938115 -0.07353606 -0.0019169986 -0.15372826 -0.021517716 0.06545396 -0.026114177
0.014940083 0.028863661 0.05844747 -0.089799464 0.05356228 0.006205972 -0.07111667 -0.05211268
-0.011621361 0.026748395 -0.042147905 0.055927396 0.0652837 -0.024758529 -0.098535724 0.016161034
0.011881775 -0.0015584325 -0.041910816 -0.016088735 -0.048080422 -0.075853325 0.012177855 0.011315095
0.008369367 -0.020705001 0.021022875 0.010644579 -0.0012527007 -0.02422307 -0.060566016 -0.07945573
0.06494622 -0.045266192 -0.021206433 -0.020273656 -0.023972902 0.06685819 -0.046359885 -0.033107385
0.0015336298 0.07602786 -0.040363725 -0.04984473 -0.042842895 -0.032090243 0.10965287 -0.04889016
-0.016083702 0.024814356 -0.15054964 -0.09984202 0.08982041 0.014730912 0.049318593 -0.034651767
-0.0148570305 -0.09479604 -0.006851807 -0.030892434 0.05691752 0.034779552 -0.048309688 -0.08721102
-0.017521411 0.024280041 0.008799975 0.018668277 -0.03324735 -0.014608588 -0.047179583 0.08224406
-0.038312737 -0.01044752 0.06170967 -0.0010598032 -0.01259914 0.015079011 0.091867864 0.0028063569
-0.0103223035 -0.027914701 -0.073901266 -0.16958366 0.047479667 -0.07179295 0.0025676063 -0.054203738
-0.117999904 -0.05407032 0.0056686252 -0.019544126 -0.0056458623 0.08206934 0.096050404 0.024509126
-0.069375515 0.0549757 -0.042221706 -0.010975248 0.007098426 -0.008528129 0.065390535 -0.067271575
0.016675934 0.042937655 -0.075543 0.050105758 0.025329167 -0.0033208458 0.054927748 0.020803133
0.010637536 -0.0099053355 -0.044198677 0.068716995 -0.07979671 -0.038750667 -0.02018865 -0.023622498
-0.025671301 0.0019290664 -0.0017564012 -0.05727094 0.0794588 -0.051555317 0.012524322 0.045201294
00000000: 38a4 a9bd 7b87 12bd ea01 c93b 04e9 c3bc
00000010: 0065 6dbd a06d a33c 734f cc3c 9244 18bd
00000020: 3466 323d 5879 a7bc c891 eebc c924 773d
00000030: de70 a03c e9a7 ee3d 18e5 823d 964d dc3d
00000040: 27d9 dbbd f9d9 bb3d a02a d83b 5d6b 1b3c
00000050: 5df7 3c3d bb91 403d 26ac a23c d615 523b
00000060: 2200 aabd e9fc 93bc e545 b3bd 76ff 08bd
00000070: 2578 7d3c c09d bbba 274e f9bb 9adc 01bd
00000080: 21f2 323d 6384 143c 7b70 f43c 3fdc 08bc
00000090: bef1 3e3d 36ac eb3c 7bdc 3f3d 8434 bc38
000000a0: 8442 aeba 774e 9f3c aec0 f6bc 3b19 15bd
000000b0: 1ba6 503d 80ff 46bd aa0f 71bd b640 193d
000000c0: 0887 c53c d796 c13d 46d5 b9bd 44cf 1a3d
000000d0: fdbf b63d aef7 05bc 5d74 d23c dc61 edbc
000000e0: 77e8 bbbd 1982 313d de3b 8abd c2aa 5bbd
000000f0: 06f3 dcbd a1e3 7cbc ad6c 5b3d b137 32bc
00000100: 038d 9bbc f051 5d3d 9549 ca3c 5d49 f4bc
00000110: 7ee3 f5bd 195d 413d 20fe a23d f226 a33c
00000120: fb72 49bd 6993 aa3b aa89 d5bc 2fed 0cbe
00000130: c9f9 5b3d 2f2f 4f3c 9493 5dbd fed4 ab3c
00000140: 315e a5bd a55c 47bd 45e1 79bd b326 01be
00000150: db9c f73c 6270 213c c4d5 213d 042d 243c
00000160: 1961 5dbd 46f6 6a3c 465f e93d 8336 d1bb
00000170: eee4 233d 732f ad3c e3fc 73bd 2036 273d
00000180: 6510 a3bc c7b4 b9bd 7e0f 6f3d ec70 3cbd
00000190: a628 52bd d2fb 003d 5e36 0b3b a392 503d
000001a0: 2e4a 1abc aa96 f4bc 3586 933c 1bb8 27bd
000001b0: cabc 50bd 6b80 7aba da05 0c3d b44e b93d
000001c0: 3aae 683d 94a8 52bd 7614 c2bc a6c3 ae3c
000001d0: bc52 1a3e fc86 4cbd a63e aebb 67d9 d23c
000001e0: 4f9f 2fbc 7ad3 223c 139a 96bd cd43 fbba
000001f0: f16a 1dbe ec45 b0bc ba0c 863d 66ed d5bc
00000200: 40c7 743c 7c73 ec3c 9d66 6f3d c8e8 b7bd
00000210: 1f64 5b3d 775b cb3b 9ea5 91bd 1b74 55bd
00000220: 8567 3ebc 731f db3c 48a3 2cbd 2014 653d
00000230: 76b3 853d 66d2 cabc 19cd c9bd 2564 843c
00000240: c7ab 423c 5144 ccba adaa 2bbd 86cc 83bc
00000250: faef 44bd fd58 9bbd a085 473c f362 393c
00000260: ab1f 093c 899d a9bc 2a38 ac3c 9a66 2e3c
00000270: a931 a4ba 766f c6bc 1214 78bd b0b9 a2bd
00000280: 8602 853d 0b69 39bd 1db9 adbc f014 a6bc
00000290: d262 c4bc f2ec 883d dde3 3dbd 9c9b 07bd
000002a0: 1404 c93a 7fb4 9b3d 6f54 25bd fd29 4cbd
000002b0: 087c 2fbd 0f71 03bd af91 e03d 0c41 48bd
000002c0: f8c1 83bc 7a47 cb3c af29 1abe f979 ccbd
000002d0: c3f3 b73d ec59 713c 4b02 4a3d 03ef 0dbd
000002e0: e76a 73bc 6d24 c2bd 1f85 e0bb 2112 fdbc
000002f0: 5822 693d 0175 0e3d 61e0 45bd b19b b2bd
00000300: 1089 8fbc f0e6 c63c c52d 103c 37ee 983c
00000310: 602e 08bd dc58 6fbc 613f 41bd 936f a83d
00000320: d1ed 1cbd 132c 2bbc 47c3 7c3d 18e9 8aba
00000330: a06c 4ebc f50d 773c 3825 bc3d dbea 373b
00000340: e11e 29bc 5fad e4bc 8c59 97bd 57a7 2dbe
00000350: 0a7a 423d 2f08 93bd 4945 283b bd04 5ebd
00000360: efa9 f1bd d778 5dbd e0bf b93b 011b a0bc
00000370: ed00 b9bb f813 a83d 13b6 c43d 5dc7 c83c
00000380: c014 8ebd 332e 613d abf0 2cbd 87d1 33bc
00000390: ea99 e83b 91b9 0bbc 79eb 853d aec5 89bd
000003a0: f89b 883c 65df 2f3d 4ab6 9abd b23b 4d3d
000003b0: 1d7f cf3c 8ca2 59bb ebfb 603d 556b aa3c
000003c0: 0f49 2e3c fd49 22bc ac09 35bd 7fbb 8c3d
000003d0: 756c a3bd 05b9 1ebd ab62 a5bc f883 c1bc
000003e0: 9f4c d2bc bad8 fc3a 0b37 e6ba ef94 6abd
000003f0: 4cbb a23d ab2b 53bd d032 4d3c fe24 393d

actor.0.2.bias f4 [256]
0.017728413 -0.11844927 0.03257039 0.05016223 0.03363318 -0.02799989 0.07587082 0.12165711
-0.043555263 -0.076406054 0.041585438 -0.013326561 0.08105359 -0.052757483 -0.022529291 -7.541853e-05
-0.026206098 -0.028064175 0.08770697 -0.083089575 0.008962287 -0.049070407 -0.07917175 0.024151813
0.008812106 0.005369413 -0.048703462 0.0034710837 0.07695034 0.019921279 0.03996364 -0.06331495
-0.0007122222 0.04644783 -0.0006996771 0.010903402 -0.040860698 -0.04122256 -0.06332396 0.008127692
0.0017488153 0.06373902 0.0650613 -0.048717096 -0.06555081 -0.10163511 -0.07418436 -0.0026498646
-0.031711552 0.0077204444 -0.02444712 -0.028321868 -0.03850102 -0.07122181 -0.005841848 0.07132617
0.029524075 0.044608064 -0.03625344 -0.06684249 -0.024140762 -0.021426804 0.11881571 -0.044028424
-0.05422027 -0.023678515 -0.012333715 -0.062805206 0.09381069 0.04506126 -0.02176253 0.0018078324
-0.062495258 -0.0062392047 -0.08286945 -0.08237195 -0.02101178 -0.019385405 -0.035321727 -0.0077910526
-0.08334569 0.11285672 0.05300423 -0.00675165 0.100883715 0.027997782 -0.0243065 0.10462828
-0.023218874 -0.059843604 -0.052279346 -0.029564053 -0.058669854 0.019546842 -0.029494395 0.029856075
-0.04448478 -0.032016892 0.015529168 -0.044158738 -0.026533358 -0.08080842 -0.059365526 -0.033272695
0.03138462 -0.03003888 -0.06373865 0.07475524 -0.08370208 -0.0038591102 -0.022181291 0.047913827
-0.078920566 0.0027388115 0.007354405 0.050997645 -0.046972472 -0.07429544 0.024358282 0.056310598
0.13833249 0.052888736 -0.03110388 -0.048866685 -0.08144128 -0.030820362 -0.06999863 -0.0708356
-0.02611704 -0.020198926 -0.0024012174 0.1088927 -0.0175733 -0.014509156 -0.123426415 -0.026037825
0.02818344 0.025353277 -0.02109435 0.095552996 0.049791 -0.02690961 -0.056192074 -0.0005645803
0.0637482 -0.03066405 -0.08360631 -0.03219941 -0.03718689 -0.054781955 -0.0027555434 0.09078926
-0.011439179 0.05828374 -0.0026038121 -0.035589807 0.060586367 0.029227559 -0.0064063384 0.1268888
0.06784442 0.039730757 0.05977785 -0.06488955 -0.055474885 -0.024017433 -0.027937924 -0.05172508
0.028329756 0.0049791713 -0.022892807 -0.0024821854 -0.012624624 -0.084795564 0.03691706 -0.10024756
0.124907106 -0.018787002 0.106226526 -0.04035344 -0.07416482 -0.05171783 0.060726285 -0.019138006
0.049580015 -0.014430861 0.051884178 0.111697 -0.08079961 -0.04611682 -0.0013290173 -0.0082499115
0.045844655 0.00066054426 -0.08352103 -0.031626854 0.06009933 0.0028964402 0.15797596 0.0019416143
-0.0065200347 0.0043341606 0.00450188 0.12173085 -0.060324434 -0.09520969 -0.093833484 0.058346473
-0.0016100081 -0.0237424 -0.034233235 0.10007867 -0.023354778 -0.034518484 0.035193995 0.01828679
-0.077304155 0.05288561 -0.03640839 -0.012665885 -0.011355232 0.011132009 -0.07737723 0.056698933
-0.026888132 -0.04386839 -0.01125898 -0.043315176 -0.051875193 -0.081178315 -0.04527284 -0.048444998
-0.07490928 -0.03807778 -0.021960972 -0.019955354 0.0373043 0.013139699 -0.01705518 0.064154364
-0.041274507 0.037368592 0.021381292 0.029961262 -0.07442213 0.024094531 0.015286165 -0.000677387
-0.031915445 -0.018448768 -0.09853745 -0.013399894 -0.07819033 0.07482215 -0.03757725 0.026856959
00000000: 2d3b 913c 8895 f2bd 8768 053d e976 4d3d
00000010: f2c2 093d 0660 e5bc 2962 9b3d 5d27 f93d
00000020: 0167 32bd c77a 9cbd 7e55 2a3d a657 5abc
00000030: 6dff a53d 3b18 58bd 598f b8bc 042a 9eb8
00000040: 2cae d6bc d7e6 e5bc b69f b33d de2a aabd
00000050: 8ed6 123c 0dfe 48bd cc24 a2bd 06da c53c
00000060: a760 103c e7f1 af3b 487d 47bd 1f7b 633b
00000070: 2498 9d3d f331 a33c eab0 233d 45ab 81bd
00000080: 6cb4 3aba 1440 3e3d 896a 37ba 2fa4 323c
00000090: 8c5d 27bd fdd8 28bd feaf 81bd 032a 053c
000000a0: 8138 e53a 9a89 823d dc3e 853d 948b 47bd
000000b0: 813f 86bd 1226 d0bd f8ed 97bd 5aa9 2dbb
000000c0: f9e3 01bd c8fb fc3b 5445 c8bc 4303 e8bc
000000d0: 3fb3 1dbd bedc 91bd f96c bfbb 7413 923d
000000e0: 79dc f13c f2b6 363d 7d7e 14bd b7e4 88bd
000000f0: d9c2 c5bc 4487 afbc a755 f33d 2657 34bd
00000100: 1316 5ebd 72f9 c1bc 5a13 4abc 04a0 80bd
00000110: d21f c03d 2892 383d 5547 b2bc caf4 ec3a
00000120: 07fb 7fbd 3e72 ccbb 75b7 a9bd a0b2 a8bd
00000130: e520 acbc 24ce 9ebc 84ad 10bd 164c ffbb
00000140: 25b1 aabd 6d21 e73d f71a 593d f23c ddbb
00000150: 1f9c ce3d 9b5b e53c 6d1e c7bc 5a47 d63d
00000160: 8235 bebc 911e 75bd de22 56bd 5030 f2bc
00000170: cd4f 70bd b320 a03c 3b9e f1bc ba94 f43c
00000180: ac35 36bd 2524 03bd 0d6e 7e3c cbdf 34bd
00000190: 7c5c d9bc e37e a5bd 4429 73bd f348 08bd
000001a0: 298d 003d 1914 f6bc 6989 82bd 4619 993d
000001b0: ff6b abbd 20e9 7cbb 8ab5 b5bc 4a41 443d
000001c0: 1ba1 a1bd a27d 333b 38fd f03b e8e2 503d
000001d0: 3566 40bd 3528 98bd 058b c73c f1a5 663d
000001e0: 08a7 0d3e dca1 583d 90cd febc 6f28 48bd
000001f0: b0ca a6bd fc7a fcbc 715b 8fbd 4112 91bd
00000200: 67f3 d5bc 3878 a5bc be5d 1dbb 2303 df3d
00000210: e2f5 8fbc d0b7 6dbc fdc6 fcbd 474d d5bc
00000220: f5e0 e63c adb1 cf3c 0fce acbc 4ab1 c33d
00000230: a6f1 4b3d 8b71 dcbc a929 66bd 5800 14ba
00000240: 6b8e 823d 2c33 fbbc c939 abbd 87e3 03bd
00000250: 4851 18bd 0b63 60bd 5996 34bb b8ef b93d
00000260: 656b 3bbc eeba 6e3d b8a4 2abb 9ec6 11bd
00000270: 6929 783d a26e ef3c 43ec d1bb 23ef 013e
00000280: 04f2 8a3d b8bc 223d 9ed9 743d d0e4 84bd
00000290: a239 63bd 35c0 c4bc 13de e4bc addd 53bd
000002a0: ce13 e83c 5128 a33b b289 bbbc 29ac 22bb
000002b0: 83d7 4ebc 4ca9 adbd 5836 173d 984e cdbd
000002c0: 4ccf ff3d 33e7 99bc 4b8d d93d a649 25bd
000002d0: bae3 97bd 13d6 53bd 20bc 783d 4fc7 9cbc
000002e0: 6a14 4b3d 6b6f 6cbc 8184 543d 66c1 e43d
000002f0: 447a a5bd fee4 3cbd 6c32 aeba a32a 07bc
00000300: 9bc7 3b3d 6028 2d3a 130d abbd 298b 01bd
00000310: b72a 763d 34d2 3d3b 73c4 213e c47d fe3a
00000320: 04a6 d5bb 9305 8e3b 8284 933b 064e f93d
00000330: c116 77bd 4cfd c2bd c52b c0bd b6fc 6e3d
00000340: e806 d3ba 6c7f c2bc 2638 0cbd 0cf6 cc3d
00000350: 8552 bfbc 4163 0dbd 9427 103d 2ece 953c
00000360: a451 9ebd 959e 583d f720 15bd 9284 4fbc
00000370: 4c0b 3abc 0863 363c f477 9ebd 243d 683d
00000380: 8044 dcbc 57af 33bd 9677 38bc 416b 31bd
00000390: 157b 54bd d140 a6bd 0370 39bd 436e 46bd
000003a0: 096a 99bd 72f7 1bbd 7fe7 b3bc 6979 a3bc
000003b0: 65cc 183d e447 573c 4eb7 8bbc 5d63 833d
000003c0: 750f 29bd cf0f 193d d227 af3c 5271 f53c
000003d0: a16a 98bd e561 c53c d372 7a3c ac92 31ba
000003e0: c5b9 02bd df21 97bc 01ce c9bd 3b8b 5bbc
000003f0: 4022 a0bd 5b3c 993d 9aea 19bd 2003 dc3c

actor.1.weight f4 [4, 256]
-0.019759858 -0.0446547 0.031435132 -0.029365407 -0.027657995 -0.024210285 -0.00032391597 -0.033996314
-0.046184085 -0.06462754 -0.041095965 0.014528474 -0.30550212 0.031866744 0.04911456 0.018666295
0.041061375 0.06809187 0.047580045 -0.041913886 -0.00037639544 -0.010779245 -0.027322594 -0.022341723
0.039000906 0.0011631576 0.06278103 -0.022994505 -0.013475163 0.09900643 0.01927422 -0.027370894
-0.085300006 -0.040588424 0.06631989 0.014683356 -0.020708581 0.012631689 0.040485475 0.03477554
0.020142714 -0.014755676 -0.036487877 0.028150022 -0.0268393 -0.023700377 0.047329955 0.010544647
-0.00818049 0.082596384 0.028405279 0.026213607 0.066654295 -0.03830743 -0.018991949 0.05321482
-0.035339125 -0.053100836 -0.05458769 0.026987951 0.008769874 -0.0009829707 0.21388094 0.03513808
-0.06828782 -0.05518484 -0.041546464 0.0039708726 0.03651345 -0.027141249 -0.0032241608 0.0031711718
-0.01619103 -0.015355373 0.035619114 -0.023601817 0.021929003 -0.116018854 0.03720796 -0.0600517
-0.00013752888 -0.07405038 -0.013986747 -0.017445855 -0.11031423 -0.15619908 -0.018640561 -0.038947865
-0.020944552 -0.0004741859 0.00477505 0.00029387447 0.020024754 0.027507415 -0.00016977955 -0.026064305
0.01849382 0.02892117 -0.007341747 -0.012012803 0.021747781 0.012436424 0.045237985 0.024367355
-0.055837024 0.013760328 0.0082518 -0.044058703 0.05978486 0.05570088 0.038254302 -0.016938496
0.01110713 -0.020377243 -0.038894657 -0.01881788 -0.015156623 0.04253509 0.06810333 -0.4282354
0.110143796 0.028246446 -0.002519049 0.011060195 -0.06051755 -0.012526559 -0.012236626 0.0010825143
-0.022365445 0.018728876 -0.0042631757 -0.15518513 -0.022380816 0.026455345 -0.024777073 0.04084296
0.034562748 0.015917165 -0.028404994 -0.08574967 0.009083792 -0.01661034 -0.03307437 0.011344435
0.006077253 0.01609302 0.04626376 0.042644214 0.0040180488 -0.005302521 0.03586827 0.046580855
0.0015274053 -0.1656909 0.029236339 0.10813773 -0.04423658 -0.063438304 0.019602241 0.14995864
-0.030216837 0.01755028 -0.037989154 0.0058342353 0.030475745 -0.021669094 0.0033511121 0.0013163015
0.001534296 -0.014725648 0.049112875 -0.02551447 -0.016099162 -0.0459479 0.037422363 0.039048646
-0.033462547 -0.03085211 0.10998879 -0.008398634 0.0775754 0.04434131 0.039070815 -0.014050208
0.022881327 -0.020467753 0.0023807504 -0.20661531 -0.0027043514 -0.032880537 0.00908878 -0.013276307
-0.030127518 -0.003687407 -0.0021782198 0.025738262 0.027388176 -0.014171303 0.017328726 -0.022629555
0.060172055 -0.013207433 0.015219381 -0.13483222 0.03723888 0.058802545 0.02048348 0.09389104
0.0058215843 0.03475555 0.058555152 0.077608965 0.014743599 -0.02798982 0.0021380673 -0.008384762
-0.01055243 0.013716092 0.026776675 -0.020666724 0.034193046 0.022917997 -0.031162584 -0.027500065
0.029116435 0.0025482685 -0.017097931 -0.019905007 0.03982887 0.04288249 0.016639922 0.0270133
-0.04871028 0.04573724 0.0030053358 0.02874848 -0.007584533 -0.04356031 -0.027330078 -0.036491144
-0.007517439 -0.01993489 0.017685799 -0.02652315 -0.0013196854 0.028512083 0.0030044615 -0.018751698
-0.025154918 -0.06428021 0.005869666 0.00018065966 0.04270173 -0.03039319 -0.032899596 0.019709677
00000000: 6ddf a1bc d9e7 36bd 20c2 003d b98f f0bc
00000010: 0593 e2bc a654 c6bc 44d3 a9b9 b83f 0bbd
00000020: 862b 3dbd 725b 84bd 3e54 28bd d608 6e3c
00000030: c66a 9cbe b486 023d 592c 493d 0fea 983c
00000040: f92f 283d c073 8b3d 4be3 423d e5ad 2bbd
00000050: f156 c5b9 6e9b 30bc a2d3 dfbc fd05 b7bc
00000060: 6abf 1f3d 1875 983a 5793 803d f95e bcbc
00000070: eec6 5cbc e2c3 ca3d f8e4 9d3c ed38 e0bc
00000080: c5b1 aebd 0c40 26bd b9d2 873d 7592 703c
00000090: 0ba5 a9bc 25f5 4e3c 19d4 253d cc70 0e3d
000000a0: 5502 a53c cac1 71bc 5074 15bd e09a e63c
000000b0: 17de dbbc 4b27 c2bc 0edd 413d 75c3 2c3c
000000c0: 7607 06bc 4b28 a93d 30b2 e83c ebbd d63c
000000d0: 0c82 883d 40e8 1cbd 0195 9bbc c8f7 593d
000000e0: c2bf 10bd 4380 59bd 5797 5fbd d615 dd3c
000000f0: 85af 0f3c 06d7 80ba 9b03 5b3e f3ec 0f3d
00000100: 7cda 8bbd 8009 62bd a02c 2abd 181e 823b
00000110: 218f 153d 5357 debc 714c 53bb 6fd3 4f3b
00000120: 0da3 84bc 1a95 7bbc 59e5 113d 9958 c1bc
00000130: 74a4 b33c 4b9b edbd 6067 183d c5f8 75bd
00000140: a135 10b9 baa7 97bd ab28 65bc 9cea 8ebc
00000150: 6dec e1bd a7f2 1fbe 17b4 98bc cc87 1fbd
00000160: e993 abbc 279c f8b9 0678 9c3b 2a13 9a39
00000170: f40a a43c 3b57 e13c da06 32b9 cf84 d5bc
00000180: 5a80 973c 17ec ec3c 0a93 f0bb 59d1 44bc
00000190: 6728 b23c 25c2 4b3c 774b 393d 0c9e c73c
000001a0: 5db5 64bd 0073 613c 8f32 073c e676 34bd
000001b0: f8e0 743d 9b26 643d 8bb0 1c3d 9ac2 8abc
000001c0: aefa 353c 2dee a6bc 0150 1fbd f427 9abc
000001d0: 7c53 78bc 4639 2e3d c279 8b3d ac41 dbbe
000001e0: 1293 e13d 1765 e73c a116 25bb d235 353c
000001f0: 40e1 77bd 323c 4dbc 217c 48bc 27e3 8d3a
00000200: bd37 b7bc 4d6d 993c 1cb2 8bbb dae8 1ebe
00000210: f957 b7bc e1b8 d83c 4af9 cabc f34a 273d
00000220: ab91 0d3d b764 823c 97b1 e8bc 869d afbd
00000230: 2fd4 143c 6812 88bc fe78 07bd 02de 393c
00000240: b123 c73b 82d5 833c 127f 3d3d b3ab 2e3d
00000250: d6a9 833b c5c0 adbb 9bea 123d 91cb 3e3d
00000260: 3833 c83a e0aa 29be 0c81 ef3c 5077 dd3d
00000270: 6b31 35bd f1eb 81bd e194 a03c c28e 193e
00000280: 4d89 f7bc 9bc5 8f3c 849a 1bbd 1d2d bf3b
00000290: 45a8 f93c 6283 b1bc 559e 5b3b c087 ac3a
000002a0: 6e1a c93a d843 71bc 952a 493d b903 d1bc
000002b0: 64e2 83bc dd33 3cbd 3148 193d 79f1 1f3d
000002c0: 0610 09bd 90bd fcbc cd41 e13d 6d9a 09bc
000002d0: dadf 9e3d 3c9f 353d b808 203d d832 66bc
000002e0: 9f71 bb3c fdab a7bc 5d06 1c3b f792 53be
000002f0: 7d3b 31bb bead 06bd 1be9 143c de84 59bc
00000300: fccd f6bc 6ca8 71bb 77c0 0ebb 0cd9 d23c
00000310: 2b5d e03c c12e 68bc f9f4 8d3c 9e61 b9bc
00000320: f976 763d fd63 58bc b65a 793c 7511 0abe
00000330: cc87 183d f0da 703d f9cc a73c f249 c03d
00000340: fdc2 be3b d65b 0e3d 87d7 6f3d 73f1 9e3d
00000350: 238f 713c e84a e5bc d11e 0c3b 3e60 09bc
00000360: 19e4 2cbc 76b9 603c c25a db3c 434d a9bc
00000370: 020e 0c3d 86be bb3c ad48 ffbc d147 e1bc
00000380: 9785 ee3c da00 273b f610 8cbc d30f a3bc
00000390: 9923 233d 8da5 2f3d 7250 883c ff4a dd3c
000003a0: 6e84 47bd f956 3b3d 2bf5 443b ef81 eb3c
000003b0: ad87 f8bb 4c6c 32bd 54e3 dfbc bd77 15bd
000003c0: d954 f6bb 7f4e a3bc cfe1 903c 1447 d9bc
000003d0: 4bf9 acba 2c92 e93c 80e6 443b 299d 99bc
000003e0: b011 cebc 58a5 83bd 5456 c03b 756f 3d39
000003f0: 02e8 2e3d 24fb f8bc bac1 06bd 3076 a13c

actor.1.bias f4 [4]
0.022592563 -0.038839217 -0.08053832 0.02315332
00000000: 0a14 b93c df15 1fbd 46f1 a4bd 08ac bd3c
