doc/trainer_example/scene_simplescene/model.onnx (onnx, 378348 bytes, 6 tensors)

actor.0.0.weight f4 [256, 106]
0	0xbd7d7bcd	-0.061885644
1	0xbd8558ca	-0.06511076
2	0x3cf790e8	0.030220464
3	0x3a2e2900	0.0006643683
4	0xbc7dd188	-0.015491851
5	0xbd4d249a	-0.050083734
6	0xbd5959d5	-0.053064186
7	0x3d306804	0.043067947
8	0xbd9d6512	-0.07685293
9	0xbd2ebc32	-0.042659946
10	0xbd9f7843	-0.0778661
11	0xbd82c8ef	-0.06385981
12	0x3cd9e3d4	0.026597895
13	0xbdbede80	-0.09319782
14	0x3d08138c	0.033221766
15	0xbd80f6ec	-0.062970966
16	0xbd859370	-0.06522262
17	0xbb0e2820	-0.0021691397
18	0xbcb31658	-0.02186124
19	0x3d9542bc	0.07288119
20	0x3c92f88c	0.017940782
21	0x3d875b3a	0.06609197
22	0xbca5256c	-0.020159446
23	0x3dbca402	0.092109695
24	0xbce1fbbc	-0.027585857
25	0x3d7e194c	0.062035844
26	0xbabb7600	-0.0014302135
27	0xbd80b00e	-0.0628358
28	0x3c20af10	0.009807363
29	0xbc9cdb7c	-0.019147627
30	0x3db0e45e	0.086373076
31	0xbd0d8fa8	-0.03456083
32	0x3d4cd894	0.050011232
33	0x3d78bf18	0.060729116
34	0x3d9c57e0	0.07633948
35	0xbcad93d0	-0.021188647
36	0x3dbfe9b8	0.0937075
37	0xbc4b3aa0	-0.012404114
38	0xbd356619	-0.04428682
39	0xbda1d7e0	-0.07902503
40	0x3a956500	0.0011397898
41	0x3cffa640	0.031207204
42	0x3d302768	0.04300633
43	0x3d919e3c	0.07110259
44	0x3d281bc0	0.04104209
45	0xbc095200	-0.008381367
46	0xbd2340a8	-0.039856583
47	0x3daefbee	0.085441455
48	0xbca155dc	-0.019694261
49	0x3d6e2624	0.058141842
50	0x3d580c50	0.052746117
51	0x3ccd7990	0.02508238
52	0x3db4e740	0.0883317
53	0xb9b55400	-0.00034585595
54	0xbc012780	-0.007882953
55	0x3d765208	0.060136825
56	0x3c82f090	0.01598385
57	0x3d885ba2	0.066581026
58	0xbd19f597	-0.03758773
59	0xbcead1f8	-0.028664574
60	0xbca91568	-0.02064009
61	0x3d835a88	0.06413752
62	0x3dc15764	0.094404966
63	0x3d85e9fe	0.06538771
64	0xbbf0aa20	-0.007344499
65	0x3d9992ba	0.07498689
66	0x3d6a5ff4	0.057220414
67	0xbd53b7bb	-0.05168889
68	0x3d93b5f8	0.07212442
69	0x3c3088e8	0.0107748285
70	0x3d90ae4a	0.07064493
71	0x3c231fd8	0.009956323
72	0x3c8a7f74	0.016906478
73	0xbda6c95b	-0.08143874
74	0x3d356a34	0.044290736
75	0xbd6c061d	-0.057623018
76	0xbd5ea24a	-0.05435399
77	0x3d2ea5a8	0.04263845
78	0x3d03c1fc	0.03216742
79	0xbcb3222c	-0.02186688
80	0x3b9f5fc0	0.004863709
81	0xbd9450bb	-0.072419606
82	0x3db8507a	0.08999725
83	0xbc557d88	-0.013030417
84	0x3d01de04	0.03170587
85	0xb9cf9800	-0.00039595366
86	0xbd6e59e0	-0.05819118
87	0x3d1c45c4	0.03815247
88	0x3d72c37c	0.05926846
89	0xbd6421fc	-0.055696473
90	0xbd8410c8	-0.06448513
91	0x3ba5b370	0.005056791
92	0x3d9cee6c	0.07662663
93	0xbbf7c220	-0.0075609833
94	0xbcf3147c	-0.029672854
95	0x3d112ab8	0.03544113
96	0x3da0d328	0.07852775
97	0x3d3f0fb4	0.046645835
98	0x3d439cc0	0.04775691
99	0x3ce02d9c	0.027365498
100	0xbe96cbff	-0.29452512
101	0x3e7489b0	0.23880649
102	0x3e24a15a	0.16077176
103	0xbe1c2199	-0.15247191
104	0x3e4452ba	0.19172183
105	0x3e0e224b	0.13880269
106	0xbd8732d2	-0.0660149
107	0xbda95c9f	-0.08269619
108	0xbcdf1ee0	-0.027236402
109	0xbd8328d8	-0.06404275
110	0xbc886b10	-0.016652614
111	0xbdc05c18	-0.093925655
112	0x3ce8a038	0.02839671
113	0xb8ae2000	-8.302927e-05
114	0x3d6b0518	0.057377905
115	0x3ca77ab8	0.020444259
116	0x3d72f284	0.059313312
117	0x3d94dd66	0.07268791
118	0xbd3f6bdf	-0.046733733
119	0xbbd4c600	-0.00649333
120	0xbdc10d44	-0.09426358
121	0x3d93cd6a	0.07216914
122	0xbce6a4bc	-0.028154723
123	0x3db8b790	0.09019387
124	0xbda8b6cd	-0.082379915
125	0x3d423c38	0.04742071
126	0x3d966574	0.073435694
127	0xbc8f0374	-0.017457701
128	0x3dbc86c6	0.092053935
129	0x3bcc03d0	0.0062260404
130	0x3cee2c00	0.029073715
131	0xbdbd6b3f	-0.09248971
132	0x3b8d1aa0	0.0043061525
133	0x3c5fa418	0.013649963
134	0xbd76b879	-0.06023452
135	0xbd0b008a	-0.03393606
136	0xbd90a550	-0.07062781
137	0x3da41432	0.080116645
138	0x3d919208	0.071079314
139	0xbd208325	-0.03918757
140	0x3d54dcf4	0.05196853
141	0x3cc7d8e8	0.024395421
142	0xbd689420	-0.056781888
143	0x3da9f234	0.0829815
144	0x3d98f180	0.074679375
145	0xbd974b27	-0.07387381
146	0x3b92ac40	0.0044761
147	0xbcd67b98	-0.026181981
148	0x3d2c1584	0.042012706
149	0xbc1f2b98	-0.009714983
150	0xbd2c34b3	-0.042042445
151	0x3dc40826	0.09571867
152	0x3d9c036e	0.07617842
153	0x3da36fde	0.07980321
154	0xbd976213	-0.07391753
155	0xbdb97d6d	-0.09057126
156	0xbdb6f2d1	-0.08933032
157	0x3c1f9b68	0.009741642
158	0xbd8dcdd2	-0.06924023
159	0xbcd3a9b0	-0.02583775
160	0x3bd273f0	0.0064225122
161	0xbcf92668	-0.030413821
162	0x3d7c5270	0.061602056
163	0x3c652760	0.0139864385
164	0xbd82a5b8	-0.063792646
165	0xbba03680	-0.0048893094
166	0xbdb510eb	-0.088411175
167	0xbdb920cb	-0.09039458
168	0xbd95515a	-0.07290907
169	0xbd287efd	-0.04113673
170	0x3d93d0ee	0.072175846
171	0x3b664380	0.0035135448
172	0xbcda6cc0	-0.026663184
173	0x3d1f3418	0.03886804
174	0xbcc6e358	-0.024278328
175	0x3db26a74	0.087117106
176	0xbb389060	-0.0028162226
177	0x3d8c35d6	0.06846206
178	0xbd890be4	-0.06691721
179	0xbcc7d178	-0.024391875
180	0x3cfdde90	0.030989915
181	0x3d5ed5ec	0.05440323
182	0xbb24c120	-0.0025139526
183	0xbcb50f70	-0.022102088
184	0xbd83dbf2	-0.064384356
185	0x3d12c1e8	0.035829455
186	0xbd6d8f95	-0.05799826
187	0xbdafb352	-0.085791245
188	0x3c091348	0.008366413
189	0x3d94d766	0.072676465
190	0x3cf2b3c8	0.029626742
191	0x3d319848	0.043358117
192	0xbd3df294	-0.04637392
193	0x3d9fdb48	0.078054965
194	0x3da7e852	0.081986085
195	0xbc9324b4	-0.017961837
196	0x3d4d1608	0.05006984
197	0xbce94190	-0.028473645
198	0x3d03a2ec	0.032137796
199	0x3d046b2c	0.03232877
200	0x3da37078	0.07980436
201	0xbbd11a90	-0.0063813403
202	0x3c9f2a24	0.019429274
203	0x3dae6712	0.08515753
204	0xbdbc1e33	-0.091854475
205	0xbd18700b	-0.037216228
206	0x3e0f0037	0.13964926
207	0x3eb5188b	0.35370287
208	0xbd1055c9	-0.03523806
209	0xbe1a72b7	-0.15082823
210	0x3dd6cf94	0.10488811
211	0xbe033253	-0.12812166
212	0x3d277508	0.040883094
213	0xbcc2db2c	-0.02378615
214	0x3d5597a0	0.052146554
215	0x3d94d082	0.07266332
216	0x3d808e18	0.06277102
217	0xbd42a2d5	-0.04751857
218	0x3c8375d8	0.016047403
219	0x3d304348	0.043032914
220	0x3d809030	0.062775016
221	0xbc3469a8	-0.011011519
222	0xbd07b7ea	-0.03313438
223	0xbdc1f6d2	-0.09470905
224	0x3d190be8	0.03736487
225	0xbd222100	-0.039582253
226	0x3dc2399c	0.09483644
227	0xbc29a718	-0.01035478
228	0xbc3af020	-0.011409789
229	0x3d1e9448	0.03871563
230	0xbd9c4798	-0.07630843
231	0xbce37610	-0.027766258
232	0xbd4c3d37	-0.049863067
233	0xbd9e3759	-0.077254005
234	0x3cdde284	0.02708555
235	0xbbf2daf0	-0.0074113533
236	0x3d57670c	0.052588508
237	0x3d41a1d0	0.047273457
238	0x3da54b48	0.080709994
239	0xbd680110	-0.05664164
240	0xbd881f8a	-0.066466406
241	0xbcd7edfc	-0.026358597
242	0xbd644e21	-0.055738572
243	0xbc192d28	-0.009349145
244	0xbd33d6a2	-0.04390586
245	0x3b3789a0	0.0028005615
246	0xbc012830	-0.007883117
247	0xbc0bc478	-0.0085307285
248	0x3d968d5c	0.07351181
249	0x3d23bd30	0.039975345
250	0x3cc20238	0.023682699
251	0x3d5ae8ac	0.05344455
252	0xbdb52b13	-0.088461064
253	0x3d306ed4	0.043074444
254	0x3d97005a	0.07373114
255	0x3d491a84	0.049097553

actor.0.0.bias f4 [256]
0	0x3c635fdc	0.013877835
1	0xbde4ddf4	-0.11175147
2	0x3cf86ce6	0.030325364
3	0x3d74c70f	0.05976015
4	0x3db8097e	0.089861855
5	0xbd15cf6a	-0.03657476
6	0x3e2bc0f9	0.16772832
7	0x3dcb1061	0.099152334
8	0x3d91aa1f	0.07112526
9	0x3e002718	0.12514913
10	0x3dfb3219	0.12265415
11	0x3d29ebf6	0.041484796
12	0xbcab1086	-0.020881902
13	0xbda0c88a	-0.0785075
14	0xbe23afab	-0.15984981
15	0x3e8e0e3d	0.27745238
16	0x3e6bc119	0.2302288
17	0x3e1e9ef8	0.1549033
18	0x3db42c00	0.08797455
19	0xbe21f497	-0.1581596
20	0xbe1837c0	-0.14865017
21	0x3df251ee	0.11832033
22	0xbd8db3dd	-0.06919072
23	0x3e102ebf	0.14080332
24	0x3e5fb48e	0.2184622
25	0x3cb44c60	0.022009075
26	0xbda8ccb0	-0.08242166
27	0xbd37e09b	-0.044891935
28	0xbe12f458	-0.14351022
29	0xbe3e5775	-0.1858805
30	0xbdaadd45	-0.08342985
31	0x3e0e5eea	0.13903394
32	0x3eb6643c	0.35623348
33	0xbe04ea9b	-0.1298012
34	0xbd33ba62	-0.04387892
35	0xbe0bda55	-0.13657506
36	0x3e511390	0.20417619
37	0xbe1f602b	-0.15564029
38	0x3cd78d43	0.026312476
39	0x3e4f8107	0.20264064
40	0x3cc8a3c2	0.024492148
41	0x3d75eb8a	0.06003908
42	0xbe2cf0ca	-0.16888729
43	0x3e54972c	0.20760792
44	0xbde4be53	-0.11169114
45	0xbe0b4ff9	-0.13604726
46	0xbdd25100	-0.10269356
47	0xbdad8576	-0.08472721
48	0xbd8380fe	-0.06421088
49	0xbdb4c483	-0.08826544
50	0x3e0f1b66	0.13975295
51	0xbaaf5342	-0.0013376253
52	0x3c9fea22	0.019520823
53	0x3d66c08c	0.05633597
54	0x3d21e847	0.039528158
55	0x3e1267ed	0.14297457
56	0xbde97a94	-0.11400333
57	0xbe20b2dd	-0.15693231
58	0xbdd1f5f1	-0.10251988
59	0x3d5d7a63	0.054071795
60	0x3d15830a	0.03650192
61	0x3d8290e2	0.063752905
62	0xbde213e0	-0.11038947
63	0x3d2d067e	0.04224252
64	0x3d8924a2	0.0669644
65	0xbe34c708	-0.1765405
66	0xbdf4ba7b	-0.11949631
67	0xbe11c7b6	-0.1423634
68	0x3cf13b9b	0.029447367
69	0xbe107b43	-0.1410952
70	0x3b603aff	0.0034214852
71	0xbdfd5305	-0.1236935
72	0x3e22b0fc	0.15887827
73	0xbdad754b	-0.084696375
74	0xbddf6d5d	-0.10909531
75	0xbe412949	-0.18863405
76	0x3ebb2d61	0.3655806
77	0xbdd43ebc	-0.10363528
78	0xbdf46234	-0.11932793
79	0x3da156b0	0.078778625
80	0x3c974cc4	0.018469222
81	0xbda2ca90	-0.07948792
82	0x3dc077fa	0.09397884
83	0x3dd6a284	0.10480216
84	0xbe1e9857	-0.154878
85	0x3e110da1	0.14165355
86	0x3c0219e8	0.007940747
87	0x3e9e4d86	0.3091852
88	0xbe1e97fd	-0.15487666
89	0xbe147f61	-0.14501716
90	0x3cbca5e3	0.02302832
91	0xbd95ff36	-0.07324068
92	0x3e24819f	0.16065072
93	0x3db430b5	0.08798353
94	0xbd8d885f	-0.06910776
95	0xbd148ab4	-0.03626509
96	0xbd3e3dce	-0.04644566
97	0x3e6ef0ef	0.23334096
98	0x3e876976	0.26447648
99	0xbd5e9b8d	-0.054347564
100	0x3eac3435	0.3363358
101	0x3e65189a	0.22372666
102	0xbde976c7	-0.11399608
103	0xbdaf3b6f	-0.08556258
104	0x3c8c537a	0.017129648
105	0x3d5762dc	0.052584514
106	0x3d1461d8	0.036226124
107	0x3dd5109c	0.104035586
108	0xbe35ee41	-0.17766668
109	0xbe0f9945	-0.14023311
110	0x3d1e7a92	0.03869111
111	0x3d8f7c75	0.0700616
112	0xbdfa1940	-0.12211847
113	0xbd4c946b	-0.04994623
114	0x3e2c364d	0.16817589
115	0xbe2e740b	-0.17036454
116	0xbd822b5e	-0.06355928
117	0x3d8dcca1	0.069237955
118	0x3df37881	0.11888219
119	0x3dedbb87	0.116080336
120	0x3dc76295	0.097356
121	0x3e07a752	0.13247421
122	0x3d89e15b	0.06732436
123	0x3e2fb7c2	0.17159942
124	0xbd3104f8	-0.04321763
125	0xbd0cc13a	-0.034363963
126	0x3e71b2fa	0.2360343
127	0xbafae022	-0.0019140283
128	0x3d3c7654	0.046011284
129	0xbe335e18	-0.17516363
130	0xbe0052a5	-0.12531526
131	0xbe016c3c	-0.12638944
132	0x3a12e68f	0.0005603814
133	0xbe9d11f6	-0.30677766
134	0xbe3a1f70	-0.18176055
135	0x3e4a39f8	0.19748676
136	0x3e11d35c	0.14240783
137	0xbd646a87	-0.055765655
138	0x3dfdb3ca	0.12387808
139	0xbca85232	-0.020547006
140	0x3d295305	0.04133894
141	0xbdd426b3	-0.10358944
142	0x3e0f59ad	0.13999052
143	0xbe20d229	-0.1570517
144	0x3ded45b9	0.11585564
145	0x3c6cffdb	0.014465298
146	0xbe165d9c	-0.14684147
147	0xbc456f9e	-0.012050537
148	0xbe379a50	-0.1792996
149	0x3cec03e3	0.028810447
150	0xbd64c97d	-0.055856217
151	0xbd964414	-0.073372036
152	0x3eb1dfd4	0.3474108
153	0x3d240883	0.04004718
154	0x3e62fc4c	0.22166556
155	0xbe10d0b9	-0.14142121
156	0x3db58307	0.08862882
157	0x3dbdc769	0.0926655
158	0xbcffa3f5	-0.03120611
159	0x3cdc9de6	0.02693076
160	0x3e74a524	0.23891121
161	0xbe0e78c5	-0.13913257
162	0xbe1405f1	-0.14455391
163	0x3e19dc6f	0.15025495
164	0x3daa0c58	0.08303136
165	0x3e74b6f8	0.23897922
166	0xbe198b82	-0.14994624
167	0x3d4ddb7c	0.050258145
168	0xbbdd0bd5	-0.0067457953
169	0x3e538a71	0.2065828
170	0xbdbda1db	-0.09259387
171	0xbd589126	-0.0528728
172	0xbaed37af	-0.001809826
173	0x3e4b6d1d	0.19865842
174	0x3e544b32	0.2073181
175	0xbe2c4cd0	-0.16826177
176	0x3e014d3e	0.12627122
177	0x3dba90c7	0.09109645
178	0x3d7b8905	0.06140997
179	0x3e03b979	0.12863721
180	0x3db5ca3e	0.08876465
181	0x39e3c2ac	0.00043441856
182	0x3dc28601	0.094982155
183	0xbe34290b	-0.17593782
184	0x3d8139dc	0.06309864
185	0x3dbc565e	0.09196161
186	0x3c315a57	0.010824761
187	0x3cb9b3a5	0.022668669
188	0xbe182c15	-0.14860566
189	0xbd6017ee	-0.05471032
190	0xbe2b5b17	-0.16733967
191	0xbe0daecd	-0.13836212
192	0x3d15d152	0.036576577
193	0x3e323cd6	0.1740602
194	0xbe106e2d	-0.14104529
195	0xbe271762	-0.16317514
196	0x3c9a64bd	0.018846864
197	0xbe24d0b8	-0.16095245
198	0xbc460cb4	-0.01208799
199	0xbe010da3	-0.12602858
200	0x3d41d1cf	0.04731923
201	0x3d8d2e0d	0.06893549
202	0x3d6d9d26	0.058011197
203	0x3e270ec1	0.16314222
204	0xbe10db01	-0.14146043
205	0x3d9ab28a	0.07553585
206	0xbe1d55d3	-0.1536477
207	0xbd94f38a	-0.07273014
208	0xbe02ad7e	-0.12761495
209	0x3e01f475	0.12690909
210	0x3d20f78a	0.03929857
211	0x3d688069	0.056763086
212	0xbc96e1ad	-0.018418157
213	0xbe241c44	-0.16026407
214	0xbc66fe2f	-0.014098688
215	0xbdd31e4f	-0.10308515
216	0xbd53eeab	-0.051741283
217	0x3e2b95d4	0.16756374
218	0x3dd149cd	0.102191545
219	0xbd7b298d	-0.061318923
220	0xba65367b	-0.0008743775
221	0xbd84856c	-0.06470761
222	0x3e311dfa	0.17296591
223	0xbe336f07	-0.17522822
224	0x3d4b7b4c	0.049678132
225	0xbdcaae5b	-0.09896537
226	0xbdb54c01	-0.08852387
227	0x3e4448e8	0.19168437
228	0x3b8e7975	0.004347975
229	0x3e30fa57	0.17282997
230	0x3d05d769	0.032676134
231	0x3d3d1dcc	0.046170995
232	0xbaa108a3	-0.0012285899
233	0x3c900cec	0.017584287
234	0x3e540514	0.20705062
235	0x3e3b0775	0.18264563
236	0x3e1c2271	0.15247513
237	0x3d8e2546	0.06940703
238	0x3e59ee8f	0.21282409
239	0xbaeeb025	-0.0018210454
240	0xbe25673f	-0.16152667
241	0xbbbf3a40	-0.0058358014
242	0x3da0623e	0.07831238
243	0x3bc7bd80	0.006095588
244	0x3de958fe	0.11393927
245	0xbdc7dcfc	-0.09758946
246	0xbdd9f6e5	-0.106427945
247	0xbd9d14a0	-0.076699495
248	0x3db13806	0.08653264
249	0x3dc3a3c6	0.09552722
250	0xbde5e6fb	-0.11225697
251	0xbc5921cd	-0.013252688
252	0x3db60832	0.08888282
253	0x3e54514d	0.20734139
254	0xbe3a6d7c	-0.18205827
255	0xba07e9c9	-0.0005184678

actor.0.2.weight f4 [256, 256]
0	0xbc0db46f	-0.008648976
1	0x3e0f36f1	0.13985802
2	0x3dc0527d	0.093907334
3	0x3ca608e3	0.02026791
4	0xbb8bf6f7	-0.004271384
5	0xbe89538a	-0.26821548
6	0x3d7a4794	0.06110342
7	0x3c13d9da	0.009024108
8	0xbe9fcbbc	-0.31210124
9	0x3c565b47	0.013083286
10	0x3da82cc3	0.082116626
11	0xbd1894ba	-0.03725121
12	0x3d43a104	0.04776098
13	0x3d407cea	0.046994127
14	0xbbce92e9	-0.006304134
15	0xbdd54f9a	-0.104155734
16	0x3c747eed	0.01492284
17	0xbcff7ee8	-0.031188443
18	0x3d660cf8	0.05616471
19	0x3c2ad56b	0.010426859
20	0x3cbeb3a0	0.023279011
21	0x3db03e8b	0.08605679
22	0xbd136d88	-0.03599313
23	0x3ca3b5be	0.019984122
24	0x3c98d26d	0.018655026
25	0x3e04e2db	0.12977163
26	0xbc85d158	-0.016335174
27	0x3cda88b4	0.026676513
28	0xbaa24dd5	-0.0012382815
29	0x3cc64991	0.024205001
30	0xbb7935a2	-0.0038026352
31	0xbd662d09	-0.056195293
32	0x3d91a7a0	0.0711205
33	0x3c9b5a33	0.018963909
34	0xbc8ca0f4	-0.017166592
35	0xb91fa5bf	-0.00015225167
36	0x3dbc9d9d	0.0920975
37	0xbce8bc39	-0.028410064
38	0x3c7bdf54	0.01537307
39	0x3cff71f1	0.031182261
40	0x3d81ecf7	0.063440256
41	0x3d4468ca	0.047951497
42	0x3db14a10	0.086567044
43	0xbcc0dbf5	-0.023542384
44	0xba903f8f	-0.001100527
45	0x3d18d5dc	0.037313327
46	0x3db7ddf3	0.0897788
47	0xbb840660	-0.0040290803
48	0x3bfb7dab	0.007674893
49	0x3d9560f1	0.07293881
50	0x3d7a17dd	0.061057914
51	0xbe173daf	-0.14769624
52	0x3cdbb480	0.026819468
53	0xbcc6abda	-0.024251867
54	0x3c77f224	0.015133414
55	0x3c5ec55a	0.013596857
56	0x3c3d21c9	0.0115437
57	0x3c91ebc0	0.01781261
58	0x3e234174	0.15942937
59	0xbd8dc96d	-0.069231845
60	0x3c2a83d8	0.010407411
61	0x3dade3aa	0.08490689
62	0x3c617871	0.013761626
63	0x3d8d0681	0.06886006
64	0x3a22ad2b	0.00062056136
65	0x3cd241b6	0.025666099
66	0x3da3a755	0.079909004
67	0x3c0a54d6	0.008443078
68	0xbcf6c94b	-0.03012528
69	0xbe27f35e	-0.16401431
70	0xbc25a8b5	-0.010111024
71	0x3da4abb4	0.08040562
72	0x3c95518d	0.018227363
73	0x3cbae823	0.02281577
74	0xbca8c707	-0.020602716
75	0xbe0e22cb	-0.1388046
76	0xbd1308b9	-0.03589699
77	0x3dac425c	0.084110945
78	0xbcd16dfe	-0.025565144
79	0xbcce3dc1	-0.025175931
80	0xbdc35156	-0.09536998
81	0x3d4a8628	0.049444348
82	0x3ca65a9d	0.02030688
83	0x3d433f01	0.047667507
84	0x3cde784b	0.02715697
85	0xbd0c7c58	-0.03429827
86	0x3d8354e6	0.064126775
87	0xbad92540	-0.0016566887
88	0x3d1bfd85	0.038083572
89	0x3d3b0ab5	0.045664508
90	0x3d57245b	0.052524906
91	0xbd771ac0	-0.060328245
92	0x3da84f33	0.08218231
93	0xbdae0acd	-0.08498154
94	0x3da8601e	0.08221458
95	0x3d089aea	0.033350863
96	0xbc708f5f	-0.01468262
97	0xbd11296a	-0.035439886
98	0xbdbcd006	-0.09219365
99	0xbd128018	-0.03576669
100	0xbd7100f4	-0.0588388
101	0x3d2b9806	0.041893028
102	0x3e0c29cb	0.13687818
103	0x3d55810e	0.05212503
104	0x3d804284	0.06262687
105	0xbc4f2552	-0.012643175
106	0x3c4fe82b	0.0126896305
107	0xbd37db4e	-0.04488688
108	0x3c786768	0.015161373
109	0xbba069ae	-0.0048954105
110	0x3d0df167	0.034654047
111	0x3d475bbf	0.04867148
112	0x3dba2758	0.090895355
113	0x3c94c9e4	0.018162675
114	0x3d902919	0.07039089
115	0xbd7d576e	-0.061850958
116	0x3b4e37a0	0.003146626
117	0x3dbb1efe	0.09136771
118	0xbb29c55e	-0.0025904994
119	0x3d2f687c	0.042824253
120	0xbd01120d	-0.031511355
121	0x3d0d5516	0.034504972
122	0xbd17ab78	-0.03702876
123	0x3cc55535	0.024088481
124	0xbc66b222	-0.014080556
125	0xbe451498	-0.19246137
126	0x3d80b325	0.06284169
127	0x3d9aa031	0.07550085
128	0xbc2f13b7	-0.010685853
129	0xbabb3baa	-0.0014284749
130	0x3e0029bb	0.12515919
131	0xbd7b06e8	-0.061285883
132	0x3e219ac1	0.1578169
133	0xbe7e00a8	-0.24804938
134	0xbc1d2fbe	-0.009593902
135	0xbd180e84	-0.03712322
136	0x3da63628	0.08115798
137	0xbcbca700	-0.02302885
138	0x3d7e7d3a	0.062131144
139	0xbcdb2bdc	-0.026754312
140	0xbc3c719a	-0.011501694
141	0x3dc752da	0.097325996
142	0x3be896d4	0.0070980582
143	0x3d84980d	0.06474314
144	0x3d91edaa	0.07125409
145	0x3d2d48a2	0.042305596
146	0x3d94e160	0.07269549
147	0x3d849a72	0.064747706
148	0xbce92672	-0.028460715
149	0x3db0dfc5	0.08636431
150	0xbc285726	-0.010274684
151	0xbd444ccd	-0.047924805
152	0xbd9b18ce	-0.075730905
153	0xbc816d55	-0.015799204
154	0xbca41699	-0.020030307
155	0x3d57b3fc	0.05266188
156	0x3d9545b8	0.072886884
157	0x3d7c7ba5	0.061641354
158	0x3e116f5b	0.14202635
159	0x3d936d75	0.07198612
160	0x3c46ba53	0.012129384
161	0x3d514e83	0.051100265
162	0x3cb23233	0.021752452
163	0xbd476fbf	-0.048690554
164	0x3ce2d785	0.027690658
165	0xbcaf1fd5	-0.021377483
166	0xbac2339b	-0.0014816405
167	0x3ca25a32	0.0198184
168	0xbd639b24	-0.055567876
169	0x3e085df0	0.13317084
170	0xbccda2fc	-0.025102131
171	0x3bf3b189	0.0074369353
172	0x3dc61a83	0.096730255
173	0x3e0f539d	0.1399674
174	0x3b46e306	0.003034772
175	0xbcff4119	-0.03115897
176	0xbd90c891	-0.07069505
177	0x3d4320f1	0.047638837
178	0x3d17c842	0.037056215
179	0xbc08ca3e	-0.008349
180	0x3c96bd40	0.018400788
181	0x3ce8a5be	0.028399345
182	0x3da9411c	0.08264372
183	0xbad01045	-0.0015873989
184	0x3d389e25	0.045072693
185	0x3cec5e7b	0.028853646
186	0x3bae8b08	0.0053266324
187	0x3d9f1e9a	0.07769509
188	0xbd5d86e9	-0.05408374
189	0xbb0bfb8e	-0.0021359655
190	0x3d2a0eca	0.04151801
191	0x3cf79401	0.030221941
192	0x3ddbedf7	0.107387476
193	0x3d71c8dc	0.059029445
194	0x3da243d5	0.07923094
195	0x3c4e253a	0.012582118
196	0x3c8cd7ff	0.017192839
197	0x3acf2005	0.0015802389
198	0x3c598d7d	0.013278362
199	0x3d38ee48	0.045149118
200	0x3cc781a3	0.024353808
201	0x3e126478	0.14296138
202	0x3c2eaa39	0.010660701
203	0xbd219a90	-0.039454043
204	0x3d3b3395	0.04570349
205	0xbe108df8	-0.14116657
206	0x3cb8099c	0.02246552
207	0x3d380879	0.044929955
208	0x3d52a7d0	0.05142957
209	0x3adf1be3	0.0017021861
210	0x3c66698c	0.01406325
211	0x3b992ec2	0.0046747634
212	0x3baa1426	0.00519039
213	0x3d4806b6	0.048834525
214	0x3d953b55	0.07286707
215	0x3bb8e872	0.005642944
216	0x3be7a3e0	0.007069096
217	0x3c81504b	0.015785357
218	0x3ddd56b0	0.1080755
219	0x3d8f4395	0.06995312
220	0x3d08b51b	0.03337584
221	0x3d4128e9	0.047158156
222	0xbe4d7da5	-0.20067461
223	0xbd556845	-0.052101392
224	0x3b9c9e76	0.004779632
225	0x3de8ab3c	0.11360785
226	0xbd8f3f26	-0.069944665
227	0xbd3cb6df	-0.046072837
228	0x3d8a3790	0.06748879
229	0xbd2bb521	-0.041920785
230	0x3e07d9ae	0.13266632
231	0xbd4d0083	-0.050049316
232	0xbcd0f655	-0.025508085
233	0x3d842875	0.06453029
234	0x3cebcc62	0.02878398
235	0x3dea17ea	0.114303425
236	0x3d94a0bc	0.0725722
237	0x3ca285cc	0.01983919
238	0x3e064f6a	0.13116232
239	0xbc2f842d	-0.0107126655
240	0xbcfd8e13	-0.030951535
241	0x3c4c53d3	0.012471157
242	0x3cd04375	0.025422791
243	0xbbc642ba	-0.006050435
244	0x3d1d28c1	0.038368944
245	0x3ce1c46e	0.027559485
246	0x3da372d4	0.07980886
247	0x3d378dac	0.044812843
248	0x3dbd84cd	0.09253845
249	0x3da74787	0.0816794
250	0xbc31eb31	-0.010859297
251	0x3cf2d1f7	0.029641135
252	0x3dbad0f7	0.09121888
253	0x3c0d919b	0.008640672
254	0xbb0b4827	-0.0021252723
255	0x3d830392	0.06397165

actor.0.2.bias f4 [256]
0	0x3dd4b07c	0.10385224
1	0x3c650075	0.01397716
2	0xbd932d1b	-0.071863376
3	0x3b9881de	0.0046541533
4	0xb81e1547	-3.768995e-05
5	0xbba24c63	-0.0049529537
6	0xbca62bd4	-0.02028457
7	0x3d478235	0.04870816
8	0x3d5afc1f	0.053463098
9	0x3df28d5f	0.11843371
10	0x3d790fd7	0.06080612
11	0xbc89690b	-0.016773721
12	0x3ce27f29	0.027648525
13	0x3ded2a36	0.11580317
14	0xbd1414e4	-0.036152735
15	0xbd71ffa6	-0.059081696
16	0xbb47006b	-0.003036524
17	0x3bbbaa8e	0.005727119
18	0xbc752246	-0.014961785
19	0xbd97fc55	-0.074211754
20	0x3cc62ca9	0.024191217
21	0x3c4d73a3	0.012539777
22	0x3bf2d3a5	0.007410484
23	0xbc646a17	-0.013941309
24	0xbc6b52ee	-0.014363034
25	0x3d91c2ef	0.07117259
26	0x3de72fb2	0.11288394
27	0x3d210e68	0.03932038
28	0x3d356aaa	0.044291176
29	0xbd6440d8	-0.055725902
30	0x3c91d17d	0.017800087
31	0x3de0d1e1	0.10977531
32	0xbd52cb79	-0.051463578
33	0xbd7baf35	-0.061446387
34	0x3df39253	0.118931435
35	0x3e002f76	0.12518105
36	0x3d9733ad	0.07382903
37	0xbd5bea02	-0.053689964
38	0x3d1bb60c	0.03801541
39	0x3d996ee4	0.07491854
40	0x3d43e9e3	0.047830474
41	0x3d105a9e	0.03524267
42	0x3df51f33	0.119688414
43	0x3c933aec	0.017972432
44	0xbd201d62	-0.03909052
45	0x3da82834	0.08210793
46	0xbd7511cf	-0.059831437
47	0x3d9bb7fa	0.0760345
48	0xbc7dd060	-0.015491575
49	0xbd610571	-0.05493683
50	0xbc783f21	-0.01515177
51	0xbd6b116d	-0.057389665
52	0xbd0f4cbd	-0.034985293
53	0xbd4ee9ec	-0.050516054
54	0x3d871789	0.06596286
55	0x3e1fe343	0.15614037
56	0xbc4c0654	-0.012452681
57	0x3e2d15a8	0.16902792
58	0xbd85988d	-0.065232374
59	0xbc8bb7fb	-0.017055502
60	0x3d22bf48	0.0397332
61	0x3de90040	0.11377001
62	0x3d605fba	0.054778792
63	0x3cf92159	0.03041141
64	0xbd6c5e58	-0.05770716
65	0x3d6bd132	0.05757255
66	0xbb63668e	-0.0034698579
67	0xbc5767ac	-0.013147276
68	0xbe778a42	-0.24173835
69	0x39f43312	0.00046577357
70	0x3cd999ba	0.02656256
71	0xbcf1b4db	-0.029505184
72	0x3d2d41ba	0.04229901
73	0xbcc57c7b	-0.024107208
74	0xbd67ec81	-0.056622032
75	0x3d034f4a	0.032058038
76	0x3d8f2d81	0.06991101
77	0x3cbcfa2b	0.023068508
78	0xbd5ac51d	-0.053410638
79	0x3dea6c2c	0.114464134
80	0x3deb9479	0.11502928
81	0xbb0f2d7e	-0.0021847184
82	0xbcdf22fa	-0.027238358
83	0xbc6d4fc5	-0.014484351
84	0x3dcc46c0	0.09974432
85	0x3d301b5c	0.042994842
86	0x3db21525	0.08695439
87	0x3e1933fd	0.14961238
88	0x3c15088a	0.009096274
89	0xbcf58eb6	-0.029975276
90	0xbb5f8120	-0.0034104064
91	0xbb8aa9e9	-0.0042316807
92	0x3d6df864	0.058098212
93	0x3da1291f	0.07869171
94	0x3d9eab2a	0.07747491
95	0x3c9622d1	0.018327149
96	0xbcfbb552	-0.030726109
97	0x3c129fab	0.008949201
98	0xbd886ba6	-0.06661157
99	0x3db2c977	0.087298326
100	0x3d80eb22	0.06294848
101	0xbc2d3cad	-0.010573548
102	0xbd297aa6	-0.041376732
103	0x3ccedef0	0.02525279
104	0x3c604ce8	0.013690211
105	0x3cd2f055	0.025749365
106	0x3d022176	0.031770192
107	0x3db33ce6	0.0875185
108	0x3dc23a76	0.09483807
109	0x3d781e94	0.060576037
110	0x3cf6581b	0.030071309
111	0xbd8acdf5	-0.067775644
112	0xbd511d42	-0.051053293
113	0xbd1694ca	-0.03676299
114	0xba2804d3	-0.000640941
115	0x3df9aed4	0.12191549
116	0xbb40154c	-0.002930957
117	0xbd3e9f9f	-0.046538945
118	0xbc0bcefb	-0.008533235
119	0xbdbce349	-0.09223039
120	0xbb81d5c5	-0.003962251
121	0x3e0cf669	0.13765873
122	0x3d3f5aef	0.04671758
123	0xbd9434b0	-0.07236612
124	0xbc3e928a	-0.011631617
125	0xbd6166a1	-0.055029515
126	0xbd433052	-0.047653504
127	0xbd87cabf	-0.066304676
128	0x3d730c92	0.05933816
129	0xbd2a8e57	-0.041639652
130	0x3e089eb8	0.13341796
131	0xbd1622fa	-0.03665445
132	0xbb445d58	-0.0029962864
133	0xbd14014f	-0.03613406
134	0xbbee75c6	-0.0072772233
135	0x3dbe0fa2	0.092803255
136	0x3d74c92a	0.059762157
137	0xbd981b01	-0.074270256
138	0xba9f81f4	-0.0012169466
139	0xbbb6ef79	-0.0055827466
140	0xbb66712c	-0.003516267
141	0x3d824079	0.063599534
142	0xbd1665b7	-0.036718097
143	0xbd58f803	-0.052970897
144	0xbc9d6ae2	-0.019216005
145	0x3bbe4ba6	0.005807358
146	0xbc43b4ef	-0.011944993
147	0xbcb306a4	-0.021853752
148	0xbd56e16a	-0.052461065
149	0xbd52828a	-0.051394023
150	0xbcb8ddf7	-0.022566779
151	0x3c602740	0.013681233
152	0x3d5743d4	0.05255492
153	0x3c5cddb5	0.013480593
154	0x3d8f94cc	0.070108026
155	0x3d3b10ca	0.04567031
156	0x3d95f2e0	0.07321715
157	0xbd8c0667	-0.06837159
158	0x3d37ab11	0.044840876
159	0x3dd1e900	0.10249519
160	0xbaabb1fc	-0.0013099308
161	0x3e0caaa7	0.13736974
162	0x3c8d01f1	0.01721284
163	0xbd3d85c6	-0.046270154
164	0xbc768eca	-0.015048692
165	0x3c2e06a1	0.010621698
166	0x3d1bef06	0.038069747
167	0x3e01c85b	0.12674086
168	0xbd1df60f	-0.038564738
169	0xbd47b9c2	-0.048761137
170	0x3c8859d5	0.016644398
171	0x3c797047	0.015224523
172	0xbb052e41	-0.002032176
173	0x3dfda8d7	0.12385719
174	0x3d672387	0.056430366
175	0x3bc6f492	0.0060716355
176	0xbc2e155d	-0.010625211
177	0x3cf6caec	0.030126058
178	0x3c18e66f	0.009332283
179	0x3debecf1	0.11519802
180	0x3daedbbb	0.08538004
181	0xbd77c46d	-0.06049006
182	0x3d14713c	0.0362408
183	0x3d87062f	0.06592976
184	0x3d8f9bd6	0.07012145
185	0xbc88ff48	-0.01672329
186	0xbd188ab6	-0.03724166
187	0xbd278d43	-0.040906202
188	0x3dd6f0de	0.104951605
189	0xbe09758a	-0.13423744
190	0x3c53c326	0.012924945
191	0x3e0db594	0.13838798
192	0xbc057da7	-0.008147634
193	0x3c0e270b	0.008676301
194	0xbd7c2345	-0.061557073
195	0xbd84f32c	-0.06491694
196	0xbe00f7f9	-0.12594594
197	0xbd26fc06	-0.040767692
198	0xbb66966b	-0.003518487
199	0xbd0f0bb6	-0.034923278
200	0xbcf53caf	-0.029936163
201	0x3d1d02df	0.038332816
202	0xbbc100fc	-0.00589001
203	0x3e2db303	0.16962819
204	0xbd93919b	-0.072055064
205	0x3c341540	0.0109913945
206	0xbce53bd0	-0.027982622
207	0xbd117392	-0.035510607
208	0x3c54b537	0.012982658
209	0x3da65238	0.08121151
210	0x3c8d8a53	0.017277872
211	0xbcc78c85	-0.024358997
212	0xbcea40b9	-0.028595315
213	0x3cf3ad99	0.029745864
214	0x3d5f8d04	0.054577842
215	0x3d0fb326	0.03508296
216	0x3dc9fa1d	0.098621584
217	0x3dd55f71	0.10418595
218	0xbaaa9f74	-0.0013017491
219	0x3dee2cd7	0.11629646
220	0x3da86b72	0.082236186
221	0xbbcf133c	-0.0063194316
222	0xbd910ab7	-0.07082122
223	0xbd83b78c	-0.06431493
224	0xbd357d37	-0.044308867
225	0x3db193c8	0.08670765
226	0x3c04126d	0.008061034
227	0xbdb86ecf	-0.0900551
228	0xbddb3029	-0.10702545
229	0x3ddcbd62	0.107783094
230	0xbd36d14d	-0.0446332
231	0x3d82a1e2	0.06378533
232	0x3d8a016b	0.06738552
233	0xbd50b749	-0.050956044
234	0x3c867964	0.016415305
235	0x3ddfdb3e	0.10930489
236	0x3d5b075e	0.053473823
237	0x3c59ae7a	0.013286227
238	0x3d2ae102	0.04171849
239	0x3d3ba738	0.04581377
240	0xbd8f4735	-0.069960035
241	0xbb12f531	-0.0022423977
242	0x3c032964	0.008005474
243	0x3d9a2d51	0.07528175
244	0x3dfec3c0	0.1243968
245	0x3d8892bd	0.06668613
246	0x3b8f8ac8	0.0043805577
247	0xbd526efe	-0.05137538
248	0x3d968ccf	0.07351076
249	0xbd184675	-0.037176568
250	0xbd45ddd8	-0.04830727
251	0x3e12ce03	0.143364
252	0xbc3fa9f2	-0.011698233
253	0x3c5a97d3	0.013341862
254	0x3d6b61cb	0.05746631
255	0xb9f2f1ea	-0.00046338077

actor.1.weight f4 [4, 256]
0	0xbde2f4ec	-0.110818714
1	0x3d313e19	0.04327211
2	0x3d686b8f	0.0567432
3	0xbd7bf874	-0.06151624
4	0x3ddf08a1	0.10890318
5	0x3db8aa4f	0.09016859
6	0xbd3d14f3	-0.046162557
7	0x3dec187f	0.1152811
8	0xbebee515	-0.3728415
9	0xbe9cba47	-0.30610868
10	0x3e00b5aa	0.125693
11	0x3d12b557	0.03581747
12	0x3ce0647d	0.027391667
13	0xbd309139	-0.043107245
14	0x3d6cb5d4	0.057790592
15	0xbb2c70ef	-0.002631243
16	0xbe8e9338	-0.27846694
17	0xbdb01948	-0.08598572
18	0x3af72a7b	0.0018857265
19	0x3db154db	0.08658763
20	0x3d1dc138	0.038514346
21	0xbd27b748	-0.040946275
22	0x3d964b97	0.07338636
23	0x3c18d082	0.009327056
24	0x3da13c3c	0.07872817
25	0xbe08b5e7	-0.1335064
26	0xbdd01b4c	-0.101614565
27	0xbdf39322	-0.11893298
28	0x3c9dcd7b	0.01926302
29	0x3dff20eb	0.124574505
30	0xbc963b7a	-0.018338908
31	0xbdd49665	-0.10380248
32	0x3d97e15d	0.074160315
33	0xbd25d10b	-0.040482562
34	0xbe96a7fc	-0.29425037
35	0x3d6f150a	0.058369674
36	0x3b585ffc	0.0033016196
37	0x3d095118	0.033524603
38	0xbcecfbf5	-0.028928736
39	0xbdde9b11	-0.1086942
40	0x3eb4260f	0.35185286
41	0x3ea794ef	0.32730815
42	0xbd2b5758	-0.041831344
43	0x3e85e5d8	0.2615192
44	0x3d31e7c6	0.043433927
45	0xbb8fc0fc	-0.004387019
46	0xbdeeae60	-0.11654353
47	0xbe90236d	-0.28152028
48	0x3ea7aa12	0.3274694
49	0x3ce10585	0.027468452
50	0xbd1da48d	-0.038487006
51	0x3e819672	0.25310093
52	0x3e1f7d51	0.15575148
53	0x39b2d40c	0.00034108793
54	0xbbbb9ca3	-0.0057254597
55	0xbdec0b08	-0.115255415
56	0xbe3682ae	-0.17823288
57	0xbf0ef42c	-0.55841327
58	0x3dd5a4d3	0.10431828
59	0x3e0128da	0.1261324
60	0x3bd9839b	0.006638003
61	0x3e88020e	0.26564068
62	0x3e3d8fcf	0.1851189
63	0x3debfbe2	0.11522652
64	0x3d383502	0.044972427
65	0xb9c714d0	-0.00037971744
66	0x3d021f51	0.031768147
67	0xbd559632	-0.05214519
68	0x3d2f906d	0.042862345
69	0x3d18e873	0.037331056
70	0x3e1c7239	0.15277947
71	0x3d2a408f	0.041565474
72	0x3e4c8a9f	0.19974755
73	0xbd4e6c56	-0.050396286
74	0x3e308d76	0.17241463
75	0xbdc9b9a7	-0.098498635
76	0xbe064c6c	-0.1311509
77	0xbd6c0bf5	-0.05762859
78	0xbd4cbf94	-0.04998739
79	0xbe4f2f1a	-0.20232812
80	0x3e446a91	0.19181277
81	0xbd9b0543	-0.07569363
82	0xbe17096f	-0.14749692
83	0x3e079d16	0.13243517
84	0x3db6b1fa	0.08920665
85	0xbdf97022	-0.12179591
86	0x3d9388a0	0.072037935
87	0xbe5f8f49	-0.21832003
88	0xbc901589	-0.017588394
89	0xbd481b3b	-0.048854094
90	0x3ce4d5c8	0.02793397
91	0x3d998418	0.07495898
92	0x3d1168cb	0.03550033
93	0xbd81902d	-0.063263275
94	0xbefd7403	-0.49502572
95	0xbc74c33d	-0.014939127
96	0x3c42a4b2	0.011880087
97	0x3dc69011	0.09695447
98	0x3c9104d7	0.017702503
99	0xbede5419	-0.43423536
100	0xbd0ba761	-0.03409517
101	0xbc9439ba	-0.018093932
102	0x3cf09f64	0.029372878
103	0xbcd51d48	-0.026014939
104	0x3bd28426	0.0064244447
105	0x3d30ac9b	0.04313336
106	0x3d4f0158	0.05053839
107	0x3ca1dcc8	0.019758597
108	0x3d2d66ac	0.042334244
109	0x3d9693b5	0.07352392
110	0x3e2158a5	0.15756471
111	0xbd049964	-0.032372847
112	0xbc2a8873	-0.010408509
113	0xbcbee84a	-0.023304123
114	0x3d2173f7	0.039417233
115	0x3d50b573	0.050954293
116	0xbd483619	-0.048879717
117	0x3b93c088	0.0045090355
118	0x3ac9d53b	0.0015398631
119	0xbe02a275	-0.12757285
120	0x3d215b22	0.03939355
121	0xbd7c3d2f	-0.061581787
122	0xbe232ea7	-0.15935765
123	0xbcc1d1e6	-0.023659658
124	0x3d26b719	0.04070196
125	0xbbd2938f	-0.0064262818
126	0xbbf4b97c	-0.0074684005
127	0xbba8c7cd	-0.0051507712
128	0x3e8f13f9	0.27944925
129	0xbc974ea4	-0.018470116
130	0xbd88078d	-0.06642065
131	0xbb9d763d	-0.004805355
132	0x3d611ee4	0.0549611
133	0x3e7e1ef3	0.24816494
134	0xbe28bd33	-0.16478424
135	0xbe5473e8	-0.2074734
136	0xbe982bb4	-0.29720843
137	0xbca9d912	-0.02073339
138	0x3c30104d	0.010746074
139	0x3d730e5c	0.059339866
140	0xbe27aa83	-0.16373639
141	0xbe2fb7b1	-0.17159916
142	0x3c3e81e8	0.011627652
143	0x3b8bf014	0.004270563
144	0x3e6128e9	0.21988262
145	0x3ccc76ac	0.02495893
146	0x3cf120ee	0.029434647
147	0x3bd0574f	0.0063580642
148	0x3de60832	0.11232032
149	0x3d0f2eba	0.03495667
150	0x3c1a3cb2	0.009413885
151	0xbcdb6470	-0.02678129
152	0xbd1fe05f	-0.039032336
153	0x3b406a4f	0.002936024
154	0xbe5c0b68	-0.21488726
155	0xbbc969c0	-0.0061466396
156	0x3e101606	0.14070901
157	0xbd323067	-0.04350319
158	0x3e11a0a2	0.14221433
159	0xbdb43c7c	-0.08800599
160	0x3ddf2891	0.10896409
161	0xbdf3178e	-0.11869727
162	0x3d0ca716	0.034339033
163	0x3d10ccbe	0.035351507
164	0x3ea04892	0.31305367
165	0x3d02a975	0.031899888
166	0xbcc67ee5	-0.02423043
167	0xbdb13238	-0.086521566
168	0xbc7481a3	-0.014923486
169	0xbc4929b7	-0.012278012
170	0x3c529d67	0.01285491
171	0x3df81547	0.12113433
172	0x3c2c6909	0.010523089
173	0x3df18e5f	0.11794733
174	0xbc935f45	-0.017989764
175	0x3c86983d	0.016430015
176	0x3d3a41c7	0.045472886
177	0xbf0d797f	-0.55263513
178	0xbd52b37a	-0.051440693
179	0xbe389107	-0.18024074
180	0xbd935dd3	-0.0719563
181	0x3dc53c62	0.09630658
182	0xbb2f0449	-0.0026705435
183	0xbe085858	-0.1331495
184	0xbe82bccc	-0.25534666
185	0xbd90ce73	-0.07070627
186	0xbc108d22	-0.008822711
187	0x3cdbaf8e	0.02681711
188	0xbdb1c874	-0.086808115
189	0xbd06d1e3	-0.032915007
190	0x3d5cc409	0.05389789
191	0xbd68ac4c	-0.05680494
192	0xbdaef023	-0.08541896
193	0x3e11af83	0.14227109
194	0x3c581043	0.013187471
195	0x3d03038b	0.0319858
196	0xbd06b1f2	-0.032884546
197	0xbd5a1644	-0.05324389
198	0x3cd8f1ed	0.026482547
199	0x3be48994	0.0069744084
200	0xbbac798f	-0.0052635144
201	0xbe1b8b38	-0.15189826
202	0xbd2bf4a1	-0.041981343
203	0xbcf1f956	-0.029537838
204	0xbcf41949	-0.029797213
205	0x3db8101e	0.08987449
206	0xbd468e5c	-0.04847561
207	0x3d7126a1	0.05887473
208	0x3dbf33b1	0.09336031
209	0x3e216b18	0.1576351
210	0xbdeef43f	-0.1166768
211	0xbcb7203f	-0.022354243
212	0x3e1552ba	0.14582339
213	0x3e445efc	0.19176859
214	0x3e919452	0.28433472
215	0x3cfec783	0.031100994
216	0xbe673876	-0.22580132
217	0x3dfad1e2	0.12247063
218	0x3cc6d2c2	0.024270419
219	0xbda62e50	-0.08114302
220	0xbde5a12a	-0.1121238
221	0x3df558cf	0.119798295
222	0xbd9c95aa	-0.07645734
223	0xbd284e7e	-0.04109048
224	0xbcf847ea	-0.030307729
225	0x3ef34822	0.4751597
226	0x3d1a1490	0.037617266
227	0xbde2be9f	-0.11071514
228	0x3e551046	0.20806989
229	0xbddf5fea	-0.10906966
230	0x3d673232	0.056444354
231	0x3e05f959	0.130834
232	0x3d985176	0.074374124
233	0xbca463c9	-0.020067113
234	0x3b952907	0.00455201
235	0x3e8434c8	0.2582152
236	0xbdbd63fa	-0.09247585
237	0xbe049659	-0.12947978
238	0x3d8212f8	0.06351274
239	0x3df4254e	0.11921178
240	0xbadec804	-0.0016996865
241	0x3e401219	0.18756904
242	0xbdd1d04e	-0.10244809
243	0xbdeda69b	-0.11604043
244	0xbd953c63	-0.072869085
245	0x3e5fbe42	0.21849921
246	0xbdf7e469	-0.12104113
247	0x3c41258e	0.011788739
248	0x3cc77524	0.02434785
249	0x3cdb5f50	0.026778847
250	0xbcaf8728	-0.021426752
251	0xbed6c6bb	-0.41948494
252	0x3cae804f	0.021301417
253	0x3dd82ce6	0.10555439
254	0xbde134e0	-0.10996413
255	0x3d9e1b5a	0.07720061

actor.1.bias f4 [4]
0	0xbd8ab1dd	-0.06772206
1	0xbd5c0530	-0.053715885
2	0x3d35a92e	0.044350795
3	0xbceaf22e	-0.028679933
